models/final_model.pth (torch, 434635 bytes, 315 tensors)

input_embeddings.embeddings.month.weight f4 [13, 7]
00000000: 0000 0000 0000 0000 0000 0000 0000 0000
00000010: 0000 0000 0000 0000 0000 0000 3e51 2ebd
00000020: 24e2 6e3e f91a ed3e 3410 7cbf aa80 0ec0
00000030: 0299 00bf 47c7 863f e906 69bd af76 383f
00000040: 1fea 17be 9c53 c9be 1a56 c33f 1715 8cbf
00000050: f582 993f 3e3a 2c3f b6ab 973f b53d 85bd
00000060: cb73 cbbf 5696 853f 4eeb 66bf 4333 8abf
00000070: 5644 cfbf 0639 3d3f 95f0 15bd 7243 6ebf
00000080: d471 113f ad1a d73e ccb1 283e cf43 b4be
00000090: 0675 f83e 9604 ebbf 917e 243f 2c19 f53e
000000a0: 59b3 4a3f 59e7 0e3f cc71 3e3f 1696 bebf
000000b0: dec5 80bf ae7b 80be b49e 5bbf b4b2 d63e
000000c0: 6a5e 883e e030 acbe 046a 52bf 767c 7abf
000000d0: fdda 1f3f 5a0a 78bf a314 cabf a04f 7e3f
000000e0: 6fdb 0cc0 7189 4fbe 5e9b 4fbf 0d6b 8dbf
000000f0: fc81 993e 0a49 bd3e b329 01bf 4394 7f3f
00000100: b8e4 93bf 9c51 fc3e 8de3 42bf 6e5e e7be
00000110: 1c81 6abf fc84 b53f de6d fcbf dff2 32bf
00000120: 9f0f 593f eb4b 9c3e 9158 2cbf f2f8 153f
00000130: 04c7 d23e ff23 cd3f 2a6f c0be d6ba 3c3f
00000140: 38bb 37bf eb1e 79bd b08b 00bf e258 30bf
00000150: eddb a83f 54ee 603f d06e 953f 5017 923f
00000160: a571 0b3f 5efa 8ebf d99a 133f
0.0 0.0 0.0 0.0 0.0 0.0 0.0 -0.042557947
0.23328453 0.4630964 -0.98462224 -2.226603 -0.5023347 1.0529565 -0.056891356 0.72056097
-0.14835404 -0.393216 1.5260651 -1.0943936 1.199309 0.6727637 1.1849277 -0.0650591
-1.5894712 1.0436504 -0.90202796 -1.0796894 -1.619273 0.73915136 -0.03660639 -0.93071663
0.5681431 0.4201254 0.16474074 -0.35207984 0.48526782 -1.8360775 0.64255625 0.47870767
0.7917991 0.5582176 0.7439239 -1.4889553 -1.0060384 -0.2509436 -0.85789037 0.41933215
0.26634532 -0.3363104 -0.82193017 -0.9784616 0.62443525 -0.96890795 -1.5787548 0.9934025
-2.2008932 -0.20267273 -0.81096447 -1.1048294 0.29981983 0.36969787 -0.5045425 0.99835604
-1.1554174 0.49281013 -0.76128465 -0.45189232 -0.91603255 1.4181209 -1.9721029 -0.6990184
0.8478946 0.3052667 -0.6732264 0.58582985 0.41167462 1.602661 -0.3758481 0.7372259
-0.7177005 -0.0608205 -0.50213146 -0.68885624 1.3192116 0.8786366 1.1674442 1.1413364
0.5447028 -1.1170156 0.57658154

input_embeddings.embeddings.day_of_week.weight f4 [8, 5]
00000000: 0000 0000 0000 0000 0000 0000 0000 0000
00000010: 0000 0000 3ae6 b23d add0 7e3f bddc 223f
00000020: 4701 033f 6e7a e43f 2ceb 0440 4780 bb3f
00000030: 89f6 30bd c3b8 6abe 6b97 80bf 19f8 763c
00000040: 9abc 90be 27f6 813f ef62 2c3f 9ccf 31bf
00000050: 583d b73f d457 b93e bf3d 1a3f 5b14 42bf
00000060: d4d4 e3be 1961 f1bf 6e05 00bf 011b 0a40
00000070: 176f 00c0 e71e b03d c9a0 debe 38b0 0840
00000080: 4823 98bf e027 16bf cce9 123f e140 d83e
00000090: 0b19 bf3e 64d2 94bf 356e 9e3f a361 27bf
0.0 0.0 0.0 0.0 0.0 0.087353185 0.99537164 0.6361807
0.51173824 1.7849863 2.0768538 1.4648522 -0.043203864 -0.22922044 -1.0046209 0.0150737995
-0.28268892 1.0153245 0.6733846 -0.6945741 1.4315596 0.3619982 0.6025047 -0.7581231
-0.44498312 -1.8857757 -0.50008285 2.1578982 -2.0067804 0.08599644 -0.43482044 2.1357555
-1.1885767 -0.58654594 0.57387996 0.42237 0.37323794 -1.1626706 1.2377383 -0.65383357

input_embeddings.embeddings.hour.weight f4 [26, 10]
00000000: 0000 0000 0000 0000 0000 0000 0000 0000
00000010: 0000 0000 0000 0000 0000 0000 0000 0000
00000020: 0000 0000 0000 0000 7712 13bf a55a 38bf
00000030: 7fa9 0ec0 664b 26be bfba 553f 64f1 91bf
00000040: 5bc0 343d 3a8f 7abf 7ffb 4dbf 03da 27bf
00000050: 7790 c93f fed7 9fbd a8a1 fb3f fc1f 423f
00000060: e530 063e 5147 0ebf 68f7 dabe 0bcf 91bf
00000070: 1b4d a73f f429 0bbf 4eaa 573f c1fd 03bf
00000080: 349b d3bf 93bc b73d 9976 3e3f 87e8 79bf
00000090: c754 ef3f 0570 0c3e 879a febe 2d0a 233e
000000a0: 3590 cb3f 8d02 00be b489 50bf 0935 b63d
000000b0: 9ac8 39bf cecd 1e3f b603 07bf 4b56 7f3f
000000c0: c266 eb3e 953f 12c0 aba2 043d 104a d6bf
000000d0: 5388 e63e c970 16bf 13b5 fabf ce8e 8dbf
000000e0: 12dc 8b3f e9d7 12bf 3aad adbf 2d89 c03e
000000f0: 1eac 393f 98fb 353f ad36 f83d ee0d a9be
00000100: 9cd8 3d3f 76a5 af3f 1e40 a83f fe37 aebf
00000110: 3172 92bf 107a d63e 0a47 a3bf 4874 62bf
00000120: a1d8 98be d6b9 303f 7cc4 cebf 07d7 a43f
00000130: e89b 99be 7e30 f13e 077f a03f c430 2ec0
00000140: 7b92 5dbf a3d0 1d3e 7353 553d 1e53 66ba
00000150: 68f1 c7be c0ea 2d3f 1349 ed3e 3936 72bf
00000160: 99d4 fdbf 8931 1bbf 6357 d03e 7140 63bf
00000170: 6914 b53e 08db 81bf 9533 a2be 0cdb ebbd
00000180: 740a ecbe 78aa c6be ed48 40bf 7c9d 853f
00000190: 3004 c8bf df24 883f e56a 2f40 9478 f1bf
000001a0: a497 c73f b101 173f 9fbb 4f3f 9a73 abbf
000001b0: 74d8 a3bf 9909 ad3e 4e0c 873f 15a7 14bf
000001c0: 3fd9 a63f 7210 01bf 1111 5b3f 1f0d 3ebf
000001d0: 7703 1d3f 619e c03e 264b d1bf 9b01 7f3f
000001e0: 7158 afbf 5128 4dbf 194e 293f c5e1 82bf
000001f0: ed02 b53f 63bb edbf 76ab f53e bcec 633e
00000200: e41c 78bf 549c 2b3f 8df3 953e 3bf4 21be
00000210: 171c d8bf 976b 0abf 741b 0e3e 6974 09bf
00000220: 873f 7e3e 6fd4 b5bf 45d6 8cbf e305 06c0
00000230: c1e5 80bf 55a4 a1bf 8d88 8e3f 5902 afbf
00000240: b22f 4f3f 0c41 71bf 1479 68bf 337a 44bf
00000250: b5d3 8fbf 5ef3 fcbd b966 85be faba e33d
00000260: 40b3 85be e5a8 d93f 06d4 013f 0c14 fe3d
00000270: e5a3 1bbf f6ca ae3f 889b b8bf e346 a8bf
00000280: 34df 17c0 a3b2 103f 06c1 ab3f 1d32 383f
00000290: ffbe ef3f 2a61 8b3e e00e 0ebf 0c5a 5e3f
000002a0: d6db 2a3f 6ffd b83f 0a08 ecbf 4f09 46bf
000002b0: e8f6 d13e cd06 82bd 22fa 07bc 41e1 3c3e
000002c0: 0b02 82be 240e 5ebf 8de0 e63f 8802 233f
000002d0: 8f82 c7bf bf8a ccbf 0863 113f 285e b5be
000002e0: b28a 06c0 def4 94bf 51b7 a2bd 2d2d b8bf
000002f0: b64a 78bf 9188 7f3e b347 993f 153e 70bf
00000300: b1a3 51be c0af 06be 13a2 89bf 1589 abbf
00000310: e927 a0bf 7d6e 1abf d79a b03f c460 e93e
00000320: c0c8 4340 24a6 a83f d0a7 78bf 2b1c 26be
00000330: c6d4 cebe 9045 5cbf 9ace 69be 9c61 5ebf
00000340: cee4 993c d26d 13be e6fc 9a3f d661 1b3f
00000350: ee7b e4be 573b ba3f 154b 01bf 7f55 d7be
00000360: 7d83 86bf c7e1 5f3f ac2c 5ebe 458b 1c3f
00000370: 0716 f1be 6705 66bf 92f0 343f b28c c93e
00000380: bb11 9dbf f5fe 73be 2a29 9fbf fd96 c23e
00000390: e3b6 f7be 1915 bd3e f102 9cbe 02cd da3f
000003a0: 99c7 a13f 4a8a 57bf e5be 263f bc65 113f
000003b0: f58f eebe 2f36 07bf 55e4 223f 9e8e 21c0
000003c0: 60f6 84bf c6e2 a93e 7fbc a5be 6e0b 79bf
000003d0: ebb6 0abe 8038 c33f d385 933e 7668 bbbd
000003e0: d79d 98bf 35af 7cbf bc91 073f 23c1 8e3e
000003f0: 362f f7be bd43 c8bf d30e 5fbf 147a 4b3f
0.0 0.0 0.0 0.0 0.0 0.0 0.0 0.0
0.0 0.0 -0.5745005 -0.7201331 -2.2290952 -0.162397 0.83488077 -1.1401792
0.044128757 -0.97874796 -0.8046188 -0.65567034 1.5747212 -0.07804869 1.9658709 0.75830054
0.1310459 -0.5557757 -0.4276688 -1.139131 1.3070406 -0.5436089 0.8424424 -0.5155907
-1.6531739 0.089715146 0.74399716 -0.97620434 1.8697747 0.13714607 -0.4972727 0.1592185
1.5903383 -0.12500973 -0.8146012 0.088968344 -0.7257172 0.62032783 -0.5274004 0.9974105
0.45976835 -2.2851307 0.032381695 -1.6741352 0.45025882 -0.58765846 -1.958651 -1.1059206
1.0926535 -0.573607 -1.356849 0.37604657 0.72528255 0.71087027 0.121198036 -0.3301844
0.74158645 1.372237 1.3144567 -1.3610837 -1.1441098 0.4189 -1.2756054 -0.8845868
-0.29852775 0.69033563 -1.6153712 1.2878121 -0.3000176 0.4710731 1.2538766 -2.7217264
-0.86551636 0.1541162 0.052081537 -0.0008786189 -0.39051366 0.67936325 0.46344814 -0.9461399
-1.9830505 -0.6062246 0.4069167 -0.88770205 0.35367134 -1.0144968 -0.3167998 -0.11516389
-0.46101725 -0.38801932 -0.75111276 1.0438685 -1.5626278 1.0636252 2.7408993 -1.8864923
1.5593152 0.58986956 0.8114566 -1.3394654 -1.2800431 0.33796385 1.055063 -0.58067447
1.3035048 -0.5041572 0.85572916 -0.7423877 0.6133341 0.37620834 -1.6351058 0.99611825
-1.3698865 -0.8013964 0.6613479 -1.0225149 1.4141518 -1.8572811 0.47982377 0.22258276
-0.96919084 0.6703541 0.29287377 -0.15815823 -1.6883572 -0.5407042 0.1387766 -0.5369325
0.24828921 -1.4205455 -1.100289 -2.0941093 -1.0070115 -1.2628275 1.1135422 -1.3672591
0.8093215 -0.9423988 -0.9080975 -0.7674896 -1.1236483 -0.12351106 -0.26054934 0.11119647
-0.2611332 1.7004668 0.5071415 0.124061674 -0.6079696 1.3655689 -1.4422464 -1.3146633
-2.3729982 0.5652258 1.3418281 0.71951467 1.8730162 0.27222568 -0.5549145 0.8685615
0.66741693 1.4452342 -1.8439953 -0.77357954 0.41008687 -0.063489534 -0.008299382 0.18445303
-0.25392184 -0.86740327 1.8037277 0.6367574 -1.5586718 -1.5979842 0.56791735 -0.35423398
-2.1022153 -1.1637228 -0.07945121 -1.4388787 -0.96989 0.2495444 1.1975006 -0.9384473
-0.204726 -0.13152981 -1.0752586 -1.3401209 -1.251218 -0.6032484 1.3797253 0.4558164
3.0591278 1.3175702 -0.9713106 -0.16221683 -0.40396708 -0.86043644 -0.22832718 -0.8686769
0.01878586 -0.14397362 1.2108428 0.6069616 -0.446258 1.4549359 -0.5050519 -0.42057416
-1.0508877 0.87453884 -0.21696728 0.6115001 -0.47087118 -0.89851993 0.7067958 0.39365155
-1.2271036 -0.23827727 -1.2434437 0.3800582 -0.4838172 0.3693016 -0.30470994 1.7093813
1.2639037 -0.8419539 0.6513503 0.5679586 -0.46594205 -0.5281705 0.6362966 -2.5243297
-1.0387688 0.33180827 -0.32370374 -0.97283065 -0.1354634 1.5251617 0.28813037 -0.09150784
-1.1923169 -0.98704845 0.5295675 0.27881727 -0.48278207 -1.5645672 -0.87131995 0.7948315

input_embeddings.embeddings.group_id.weight f4 [2, 1]
00000000: 0000 0000 ba42 69bf
0.0 -0.9111744

prescalers.encoder_length.weight f4 [16, 1]
00000000: 191e 473f 0267 783e 7ae5 0dbf b6a9 8abe
00000010: 474b 0fbf 1f45 50bf 9c49 41bf aa6f d03e
00000020: 5ff9 6cbf c655 47bf 5159 713f 943a 3abf
00000030: 187c 343f eef8 44bf cee3 50bf ecda 3dbf
0.777803 0.24258044 -0.5542828 -0.27082604 -0.5597424 -0.8135547 -0.75502944 0.40710193
-0.9256801 -0.77865255 0.9427691 -0.72745633 0.7050185 -0.76942337 -0.815976 -0.74162173

prescalers.encoder_length.bias f4 [16]
00000000: 43c9 6f3e 4e83 13bf d584 543f c6a3 943d
00000010: 9f5c 61bf 8829 4bbf 79d8 a53e d1f0 bc3d
00000020: b65a cd3e f783 81be f838 f9bd 5245 a33d
00000030: 5fa8 763f 2c47 acbe 6a6c 453f aee9 4ebe
0.23416619 -0.5762223 0.83015186 0.072578 -0.88031954 -0.79360247 0.32391718 0.092256196
0.4010827 -0.25295994 -0.12169069 0.07972206 0.96350664 -0.3364805 0.7711855 -0.20206329

prescalers.ND_center.weight f4 [16, 1]
00000000: b863 32bf 58cd 0bbf 6896 24be 68d2 7fbf
00000010: e08b 64bf 3029 11be 0479 e7be 8443 883e
00000020: f6bd 533f 7890 bb3e 10fe 9dbd 80ef f53d
00000030: f4d2 babe 4a00 1a3f a84a 4fbe 409e e1bc
-0.6968341 -0.54610205 -0.16073 -0.9993043 -0.8927593 -0.14175868 -0.45209515 0.2661401
0.8271173 0.36633658 -0.07714474 0.120085716 -0.3648907 0.6015669 -0.20243323 -0.02754128

prescalers.ND_center.bias f4 [16]
00000000: 0986 c93e e7bf cf3d 37b5 873e 8da5 d2be
00000010: cfc4 27bf bdfb 82bf c0d2 13bf 75bf 463f
00000020: f57e 77be f075 e2be 442b 1d3f 77d6 d43e
00000030: 163e 5a3e 4c67 49bf aa41 6dbf cab7 413f
0.39360073 0.10144024 0.26505443 -0.4114193 -0.6553468 -1.0233074 -0.57743454 0.7763589
-0.24169524 -0.44230604 0.61394143 0.41569874 0.21312746 -0.78673244 -0.9267832 0.75671065

prescalers.ND_scale.weight f4 [16, 1]
00000000: 6099 3dbf 1a99 33bf 2693 04bf b0fb bcbd
00000010: 6438 263f 20ef 75bf 1400 ca3e 346b d83e
00000020: ac05 bb3e c07b f63d 82a2 473f b0e6 d6bd
00000030: 30a8 9b3d f816 633f 1223 6c3f 1e37 093f
-0.74062157 -0.7015549 -0.5178703 -0.09227693 0.64929795 -0.96068 0.39453185 0.4226929
0.36527765 0.12035322 0.7798234 -0.10493219 0.076004386 0.8870692 0.92241013 0.5359973

prescalers.ND_scale.bias f4 [16]
00000000: ca8f c4be 34e1 98bd 53af 25be a45a c8be
00000010: 5cc0 13be 394a 69bf 00d8 173f 79e1 fc3e
00000020: bfbb 34bf 49de 5cbf 6015 f13e e1d5 4a3f
00000030: 3575 d73e f840 a63e aef2 793f 7c67 6b3f
-0.38390952 -0.07464829 -0.16180162 -0.39131653 -0.14428848 -0.9112888 0.59313965 0.49390772
-0.7059898 -0.8627668 0.4708662 0.79232603 0.4208161 0.32471442 0.97635925 0.9195478

prescalers.time_idx.weight f4 [16, 1]
00000000: 97fc 6e3e 9fa9 4abf 7632 82be 15a7 97bf
00000010: bba6 3fbe 14c0 98be 9073 423f 1e3d cd3e
00000020: cdcf 39bf 5704 a4be 8fbc e03e 9239 283e
00000030: e4df e03e 7924 40bf 0624 183f e27e f63d
0.23338543 -0.7916507 -0.25429124 -1.1847864 -0.18715946 -0.29834044 0.75957584 0.4008569
-0.72582704 -0.3203456 0.4389386 0.16428211 0.43920815 -0.7505565 0.5942997 0.1203592

prescalers.time_idx.bias f4 [16]
00000000: 4f35 5b3e 848a 7d3f e366 66bf e709 213f
00000010: 2ec5 773f c977 933f a409 32bf 05bc 3c3f
00000020: c3d7 37be ba8b 3ebf 1650 98be 8cd9 133f
00000030: 501f 2abf b192 063f 8862 603e fa31 643f
0.21407054 0.99039483 -0.9000074 0.62905735 0.9678525 1.152093 -0.6954596 0.73724395
-0.179534 -0.74431956 -0.297486 0.57753825 -0.6645403 0.52567583 0.21912587 0.8913876

prescalers.relative_time_idx.weight f4 [16, 1]
00000000: 5d3f 9c3f b0c4 e63d c36e 69bf c551 313e
00000010: 8120 3fbf 632a bbbe 8727 0f3e 517a 0fbf
00000020: 3504 823f c71b 3fbf b20a 07be 7af0 5ebf
00000030: 8f31 4e3f 8293 1cbe ae0d 97be ba38 90bf
1.2206837 0.11267984 -0.91184634 0.17316349 -0.7465897 -0.36555776 0.13979922 -0.56046015
1.0157534 -0.7465176 -0.13187674 -0.8708569 0.8054437 -0.15290645 -0.29502624 -1.1267312

prescalers.relative_time_idx.bias f4 [16]
00000000: 91e6 45bf b00a 223f d22d 043e 37a2 24bf
00000010: dbbf 9cbe 1085 73be 363b 57bf 5970 473f
00000020: 13ae 7f3f 559f 3d3f d1ec 533f 3510 ab3d
00000030: d099 34bf 8434 0c3f 06ac 473e 76a9 0fbf
-0.7730494 0.6329756 0.12908104 -0.6431002 -0.30615124 -0.23781228 -0.84074724 0.77905804
0.9987499 0.74071246 0.8278323 0.083527006 -0.705472 0.5476763 0.19499215 -0.5611795

prescalers.ND.weight f4 [16, 1]
00000000: 23e2 93bb f03c 213f f589 003f 55cc 123e
00000010: d0d2 dd3d 7f12 26bf c272 39bf fa92 49bf
00000020: 3786 5abe 6270 09bf cad3 a6be c24c 00bf
00000030: 617d e73e be2c 8fbe 2901 773d 9563 773f
-0.0045130416 0.6298361 0.50210506 0.14335759 0.10831225 -0.6487197 -0.7244073 -0.78739893
-0.21340261 -0.5368711 -0.32583457 -0.50117123 0.45212844 -0.27963823 0.06030384 0.96636325

prescalers.ND.bias f4 [16]
00000000: fba0 3fbf 0155 363f 2baf 33bf 46d5 733f
00000010: 68ee 1f3f b737 44bf 48ec 63bf 3dba 813f
00000020: 4c53 0abf c72d ea3d c8a1 31bf ba9e 093f
00000030: b34f 163f 9f80 a63d 7c0b 7f3c d65c 043f
-0.7485501 0.71223456 -0.7018916 0.95247304 0.62473154 -0.76647514 -0.8903241 1.013496
-0.5403335 0.114345126 -0.69387484 0.5375782 0.5871536 0.08130001 0.015566703 0.51704156

prescalers.EMBEDDED_WIND_GENERATION.weight f4 [16, 1]
00000000: 8beb 28bf b2ae fc3e a015 343e a6f2 56bf
00000010: 621b be3e e788 94bd 7480 7a3f 7b24 09be
00000020: c9c2 edbe 8949 063f 1d06 b73e 3a4f 393f
00000030: 0d54 15bf bd07 abbe afa7 6d3f 6563 0e3f
-0.6598441 0.49352032 0.17586374 -0.83964 0.37130266 -0.072526745 0.97852254 -0.13392822
-0.46437672 0.52455956 0.35746852 0.72386515 -0.58331376 -0.3340434 0.9283399 0.55620414

prescalers.EMBEDDED_WIND_GENERATION.bias f4 [16]
00000000: ac2c f03e 551e 6f3f b3fe 493f c067 50bf
00000010: 7aae 25be 9aac 343f 5760 3bbf 9048 3e3e
00000020: 912e cdbe 06f1 5dbe e2e0 38bf 17f6 113e
00000030: 1160 13bf 4b20 b73e 4ff1 203f e349 733e
0.46909082 0.9340566 0.78904265 -0.8140831 -0.16179839 0.7057587 -0.7319388 0.18582368
-0.4007459 -0.21673974 -0.72218144 0.14254032 -0.5756846 0.35766825 0.6286821 0.23758654

prescalers.EMBEDDED_SOLAR_GENERATION.weight f4 [16, 1]
00000000: 06cf 36bf f7a7 063f 17ff 0cbe 2add 843e
00000010: 2f25 89bf 9ee3 fdbe d836 b73e ccf3 6bbf
00000020: d7cd 023e b498 86be d298 ff3e afab a73e
00000030: 93de 32bf 0c0c d23e 400c a9be 8c3b 28bf
-0.7140964 0.52600044 -0.13769184 0.25949985 -1.0714473 -0.4958772 0.3578403 -0.9216888
0.12773834 -0.26288378 0.4992128 0.32748172 -0.6987087 0.41024816 -0.33017159 -0.6571586

prescalers.EMBEDDED_SOLAR_GENERATION.bias f4 [16]
00000000: de66 c4be 86a0 7f3e bb02 d33d fe78 14bf
00000010: 3f77 a33e 5f2d 773e a6b8 7a3f 047a a23d
00000020: 6938 03bf e804 98be d768 30bf 8bfd 193d
00000030: 20d5 343f 4cf5 313f 52d5 383e d573 613f
-0.3835973 0.24963579 0.10303255 -0.5799712 0.31926915 0.24138401 0.97938 0.07933429
-0.5125795 -0.29691243 -0.6890997 0.037595313 0.706377 0.6951492 0.18050125 0.8806737

prescalers.IFA_FLOW.weight f4 [16, 1]
00000000: e624 513f 65d2 653f 8bc6 53bf c903 123f
00000010: 6cd3 6cbf d69a 303f b356 27be 18e3 8ebe
00000020: c2aa 103f 27d2 2abf 0908 853f 010f 4abf
00000030: af13 ffbe 4f6c 19bf 585e 633f 58e2 f4bd
0.8169693 0.8977416 -0.8272483 0.57037026 -0.92510104 0.6898626 -0.16341667 -0.27907634
0.56510556 -0.6672692 1.0393077 -0.78929144 -0.49819705 -0.5993089 0.8881583 -0.11957234

prescalers.IFA_FLOW.bias f4 [16]
00000000: 5d9c bf3e 0363 b93e 231e 093f 7585 3dbf
00000010: 77ff 543f 5ecd 64be 6af5 a23c e73d 60bf
00000020: 2709 663f e07c e0bd 8731 ad3e 63d9 0dbf
00000030: 960c 57bf 7e09 1b3f 2d13 683f 17bb 803e
0.37423983 0.36208352 0.5356161 -0.74031764 0.8320231 -0.22343966 0.019892413 -0.87594455
0.89857715 -0.10961318 0.3382685 -0.5540983 -0.8400358 0.6056136 0.9065426 0.25142738

static_variable_selection.flattened_grn.resample_norm.mask f4 [4]
00000000: 913a 893b cb68 093d 737b 003c 738b 48bc
0.00418789 0.033547204 0.007841933 -0.012240279

static_variable_selection.flattened_grn.resample_norm.norm.weight f4 [4]
00000000: c630 873f 26cc 853f 7de6 823f 9a56 7c3f
1.056176 1.0452926 1.022659 0.98569643

static_variable_selection.flattened_grn.resample_norm.norm.bias f4 [4]
00000000: 6a87 42bd 09f5 05bc 2fff a13c e90b 49bc
-0.047492422 -0.008176097 0.019775001 -0.012270906

static_variable_selection.flattened_grn.fc1.weight f4 [4, 49]
00000000: 0924 31be dda7 8c3e d4e7 bc3d e5f4 89be
00000010: 8a32 7a3e f62d 70bc 0884 033e a01d 663d
00000020: 2b84 bc3d 956c cdbe dfe3 8abd a320 7e3e
00000030: e6d0 d3bd 68a1 c8be 0a9d 54be cb99 aa3e
00000040: 1f2b d2bd 78c5 9cbd 0817 303a 9305 8bbe
00000050: 49cf 923e 6b7f 563e 5e3b 0b3e 9356 87bc
00000060: c076 a6be 648a 05be 2ec1 963e fe7a 24bd
00000070: 70d0 ed3d ce1b 8f3e 9bba 143e aa57 193d
00000080: e3d2 8ebe b879 d1bd eb87 46be 0e72 96be
00000090: 7fe7 873b e8e9 a6be 7a11 003e 6ccd 84bc
000000a0: 0999 66be a16e 1a3e 2e6c 813e d176 3ebe
000000b0: 1837 ec3d b5d2 5fbd f4e5 473e d37a 723e
000000c0: ce5e 4ebe 6b25 d0bd d03e 9f3e 3960 e2bc
000000d0: ccfe bdbe 4de0 eb3c 7719 343e 36d8 d1bd
000000e0: ae06 2cbe 74e9 8cbe df13 f83d 2a80 a9be
000000f0: 1c65 a6be 7ce9 50bb 9b1a 3fbc c3e8 2ebb
00000100: 624d e4bd 1d4d 543d 4e03 973e bb9a 943e
00000110: 69fb 0d3e 414f 383d ae92 15bd 7bff 31be
00000120: 7358 33be ff37 2b3e f0db a0bd 06e3 90bd
00000130: 3d1e 1a3e 9236 4a3e c7ff 0cbe 8de8 d73d
00000140: 6920 17bd 415a 9e3d 94e1 533e dcff 123f
00000150: b706 9f3e 4f49 af3e 8e5e 12bb d26f bc3e
00000160: c9e9 91be 6ffb 18bd 1832 1f3d d87c cb3e
00000170: 3af7 a1bd 39db 8f3d 301e 183c a1f9 a5ba
00000180: ddd5 6bbe b634 fdbd 86ca c73d 88e0 2bbd
00000190: 8b57 973e d884 33be 4476 4fbe d9c0 23bf
000001a0: 9c45 6e3c 0902 6e3e 4bbc 29be 928f 0fbc
000001b0: e3f6 a03e f971 633e d493 c63e adb3 89bd
000001c0: c3fc 0e3e f7cb afbd 5ed5 363d 51b5 20be
000001d0: d5c4 55be 23ff cc3c 1cc1 3dbe e8e4 42bd
000001e0: a708 753c 18f5 073d db7c 063e 243c 22be
000001f0: a69c 9c3e f7c0 2e3e 818f 32bd 7429 e1bd
00000200: e907 bd3d 82d5 a03e 3623 69bd a9c5 893d
00000210: c937 423e 9a10 313e b8a7 923d 9d64 9cbe
00000220: 4fee 55bd 5510 143e 7451 f5bc 9f3c 95be
00000230: a048 b53c 330a b43d 8061 bd3c 84b4 0e3e
00000240: a6d5 83be 76ab 7dbe 1e29 79be 5e02 04be
00000250: d0ce a03e 7f96 b53d 25f8 9ebe bada 653e
00000260: 52b0 bb3e 9ef2 95be 469e bb3d 421c ad3e
00000270: 7d24 bcbd c5b8 3c3e 441e 223d f1ad a6bd
00000280: 85ad ca3c 63e5 e33c c2f7 173e b94c 533e
00000290: 223c 9dbe a72c e7bd af27 2d3d 5feb a5bd
000002a0: 09f3 b6bd 9a7b c93d 3bea 943e 6e51 8fbe
000002b0: dbb6 323e d06f 1d3e 9edf b43d d1ff 3a3e
000002c0: 4b48 81be 73b9 ccbd 40df 6bbe 0a07 2f3e
000002d0: 7bc5 d53b adef 69be 7d64 a63d ba77 923e
000002e0: 4b1c 283e 8534 ebbe fd2d d13e f0b8 1abf
000002f0: d54c b83d b1cd 58be 7fe9 81be 92a3 9fbe
00000300: d922 f1bd 9b81 c7be 4ca1 fbbd d164 c2bd
-0.17298903 0.2747182 0.09223905 -0.26944652 0.24433342 -0.014659395 0.12843335 0.056180596
0.092048965 -0.40121904 -0.06781744 0.24817137 -0.103425786 -0.39185643 -0.2076303 0.3332046
-0.10262131 -0.07654852 0.0006717299 -0.2715269 0.2867377 0.20947044 0.13596866 -0.016520774
-0.32512474 -0.13041073 0.2944426 -0.040156357 0.11612022 0.279509 0.1452431 0.03743712
-0.2789527 -0.10228294 -0.19387786 -0.29383892 0.0041474695 -0.3260033 0.12506667 -0.016211234
-0.22519316 0.15081264 0.25277847 -0.18600012 0.11533946 -0.054644305 0.19521314 0.23679666
-0.20153353 -0.10163387 0.3110261 -0.027633773 -0.37108457 0.028793478 0.17587839 -0.10246317
-0.16799423 -0.2752186 0.12113165 -0.33105594 -0.32499015 -0.0031877449 -0.011664058 -0.002668903
-0.11147572 0.051831353 0.2949471 0.290243 0.13865437 0.044997457 -0.036516838 -0.17382614
-0.1751421 0.1672058 -0.0785445 -0.07074551 0.15050597 0.1974738 -0.13769446 0.105424024
-0.036896143 0.07732058 0.2069152 0.5742166 0.3105981 0.34235618 -0.002233419 0.36804062
-0.28498676 -0.03734916 0.038866132 0.39743686 -0.07908483 0.07024235 0.009284541 -0.0012662896
-0.23030801 -0.123635694 0.09755425 -0.041962177 0.29558977 -0.17531145 -0.20259959 -0.6396614
0.014542963 0.23242964 -0.16575734 -0.008762257 0.3143836 0.22211446 0.3878466 -0.067237236
0.13963608 -0.08583825 0.044637077 -0.15694167 -0.20875867 0.025024002 -0.18530697 -0.047581583
0.014955676 0.033192724 0.13133566 -0.15843254 0.30588263 0.17065798 -0.043593887 -0.10994235
0.09230024 0.31412894 -0.056918345 0.06727154 0.18966593 0.17291489 0.07160896 -0.30545512
-0.052229222 0.14459355 -0.029946066 -0.29147813 0.022129357 0.08791008 0.02311778 0.13936049
-0.25748938 -0.24772438 -0.24332091 -0.12891528 0.31407785 0.088665955 -0.31048694 0.22446719
0.3665796 -0.29286665 0.09161048 0.33810622 -0.09186647 0.18429859 0.039579645 -0.081386454
0.024740944 0.027819341 0.14840606 0.20634736 -0.3070994 -0.11287814 0.042274173 -0.08101534
-0.08933074 0.09838028 0.29084954 -0.27991813 0.17452566 0.15374684 0.08831714 0.18261649
-0.25250468 -0.09996309 -0.23034382 0.17092529 0.0065237856 -0.22845335 0.08124635 0.2860697
0.16417043 -0.45938507 0.408554 -0.6043844 0.089990295 -0.21172215 -0.25373456 -0.31179482
-0.11774225 -0.3896607 -0.12286624 -0.094918855

static_variable_selection.flattened_grn.fc1.bias f4 [4]
00000000: e2a9 d9b9 2da9 6a3c 0ce9 d33b a76e 883c
-0.00041516038 0.014322561 0.0064669903 0.016654326

static_variable_selection.flattened_grn.fc2.weight f4 [4, 4]
00000000: 015a 1f3b de79 fe3e e48a 00bf 9fde 733d
00000010: bc12 3c3f c11c 52bf 57f9 023e 0738 0abf
00000020: 22a0 ebbe f42d 5dbf b0dd f1bc ab8c 19bf
00000030: afa3 273d 2259 3ebf f612 cb3e 7cc2 acbd
0.002431512 0.49702352 -0.5021193 0.05953848 0.73466086 -0.82075125 0.12790428 -0.5399174
-0.4602061 -0.86398244 -0.029524654 -0.5998027 0.040927585 -0.74354756 0.39662904 -0.084355325

static_variable_selection.flattened_grn.fc2.bias f4 [4]
00000000: 3943 8c3c 4b09 74bc f2ff 4fbd dc62 2b3d
0.017121898 -0.014894794 -0.050781198 0.041842327

static_variable_selection.flattened_grn.gate_norm.glu.fc.weight f4 [8, 4]
00000000: 5f9b fb3d 11a6 293e c982 dcbd 8b98 06be
00000010: 0a09 b83e 2796 df3e fa4d be3e e1f1 cb3e
00000020: 6065 6b3e 4948 0c3f 99f1 a13e c0cd 1a3f
00000030: 219e 273e 22cb b8bd 46bf 5b3d fab6 043f
00000040: 069a 34bf eb16 87be 4222 1f3f 4016 e53e
00000050: 9d6f e3be 007a af3e 67f4 113f a38b 75be
00000060: b49c 303f 9d87 e63c 0ecd 1cbf d975 0d3f
00000070: aa22 a7bd c025 2e3f cb0d c03e 8121 b13e
0.12285494 0.16567256 -0.10767133 -0.13144128 0.35944396 0.43669245 0.37168866 0.39832976
0.2298789 0.547978 0.31629637 0.604702 0.16368915 -0.090231195 0.05364921 0.518417
-0.7054752 -0.26384673 0.6216165 0.44743538 -0.44421092 0.34272766 0.57013553 -0.23979048
0.6898911 0.028140837 -0.6125039 0.55257946 -0.081609085 0.6802635 0.37510523 0.34595874

static_variable_selection.flattened_grn.gate_norm.glu.fc.bias f4 [8]
00000000: 78f2 cdbc 2f60 9abc 4010 5c3d cec9 ff3b
00000010: 8cdf 9cbb dcf3 d3bc cb90 75bd 126b a4bc
-0.025140032 -0.018844692 0.053726435 0.0078060394 -0.004787391 -0.025873117 -0.05995254 -0.020070586

static_variable_selection.flattened_grn.gate_norm.add_norm.norm.weight f4 [4]
00000000: ed64 743f dd7a 773f bf19 813f f511 773f
0.954665 0.9667185 1.0085982 0.96511775

static_variable_selection.flattened_grn.gate_norm.add_norm.norm.bias f4 [4]
00000000: 7946 2d3d f5d5 103d 6bd0 3d3c 4afc b5bc
0.042303536 0.035360295 0.011585335 -0.022215027

static_variable_selection.single_variable_grns.group_id.mask f4 [32]
00000000: 840c 25bb 6720 0dbb 81ed afbb 8160 efbc
00000010: 92fc 80bc 251a 9cbc e231 19bb a747 2cbc
00000020: 4c48 adbc b544 af3d caa2 1db8 67ac 7a3c
00000030: e8e7 163d 26ab be3a 7e8a 99bc 93e0 16bc
00000040: 0ee4 d23c 7927 b43c 4d0f febc 0ae9 403c
00000050: d475 0abd b7e7 37bd 246b 0d3b 5076 0e3b
00000060: 6747 85bc ec85 853c 31d3 44bd bd05 a03d
00000070: cbc8 803c 1593 1fbc 7c53 083d 70f4 2138
-0.0025184462 -0.0021534206 -0.005368889 -0.029220821 -0.015745435 -0.019055435 -0.002337568 -0.01051513
-0.021152638 0.08558027 -3.7583326e-05 0.015299893 0.036842257 0.0014546856 -0.018742796 -0.009208816
0.02574351 0.021991478 -0.031013155 0.011774311 -0.033803776 -0.044898715 0.0021578753 0.0021738
-0.016269399 0.01629921 -0.04805297 0.078135945 0.015720746 -0.009739657 0.033282742 3.861304e-05

static_variable_selection.single_variable_grns.group_id.norm.weight f4 [32]
00000000: ea97 793f b63d 7d3f cd1b 7a3f 0fd7 803f
00000010: b6d6 7c3f 9e64 803f 22b2 7a3f b3f9 7b3f
00000020: 576a 803f 069a 8a3f bb2a 7e3f 6fad 7d3f
00000030: 4512 823f b285 7e3f 959a 7d3f 46ee 7b3f
00000040: 86a9 803f 4f44 803f ab18 823f e113 7c3f
00000050: d065 823f 2545 833f 0a58 7c3f 2e0d 7e3f
00000060: 3426 7e3f dc28 7e3f 92f1 833f f1e9 883f
00000070: ab57 7d3f ccce 7c3f ff83 813f d1b9 7a3f
0.9749743 0.9892229 0.9769867 1.0065631 0.9876512 1.0030706 0.9792806 0.98427886
1.0032452 1.0828254 0.9928395 0.99092764 1.0161825 0.9942275 0.99064 0.9841045
1.0051734 1.0020846 1.0163778 0.9846783 1.0187321 1.0255476 0.98571837 0.9923886
0.99277043 0.99281096 1.0308096 1.0696393 0.98961896 0.98753047 1.0118407 0.97939783

static_variable_selection.single_variable_grns.group_id.norm.bias f4 [32]
00000000: c4fd 713b 099e 5fba 108d df3b c678 ac3c
00000010: 5c09 463c 3557 3c3c 4ebe 033a 4478 1d3c
00000020: f1db 5a3c 1c85 75bd 3d90 613a 4892 e3bb
00000030: 83f6 c2bc 8a26 1ebb df84 9f3c 7509 183c
00000040: 0c9e abbc e1db 91bc 45ec a63c 6b8e 12bc
00000050: 6c78 be3c 4fda 003d 2384 e3ba fe59 a9bb
00000060: ac81 433c 6b76 55bc f45e 253d 9b3f 6abd
00000070: 4507 18bc 3cc2 063c 0d8f c7bc dc82 e23a
0.0036924938 -0.0008530324 0.006822236 0.021053683 0.012087192 0.011495401 0.0005025611 0.009611193
0.013358102 -0.059941396 0.0008604562 -0.0069449283 -0.023799187 -0.0024131858 0.019472538 0.0092795985
-0.020949386 -0.017805042 0.020376334 -0.008945088 0.023250781 0.031458195 -0.0017358105 -0.0051681986
0.011932772 -0.013028721 0.040373757 -0.057189565 -0.009279077 0.00822502 -0.024360204 0.0017281431

static_variable_selection.single_variable_grns.encoder_length.resample_norm.mask f4 [32]
00000000: 67bc e7bc c840 debc 1547 1e3d a5e7 98bc
00000010: a3b9 2c3c aa7c 713c ff9f d13c 0ded 1dbb
00000020: b5c7 39bd a905 5c3d 4179 17bd c898 13bc
00000030: ab28 0f3d cf6c a6bc 2eef 7dba c858 bb3b
00000040: 09e1 53bd d3ec 06bc 958d dfbc ea18 023c
00000050: 264b 6e3c c0d7 cd3c f2d2 a23b 8981 7ebc
00000060: 835b 8f3b 3a11 afbc 8298 9a3c 5dc7 453d
00000070: 0dcf 393c 81aa 233c a6f0 153d 059c d3bb
-0.02828808 -0.0271305 0.038642008 -0.018665144 0.010542306 0.014739195 0.025588987 -0.0024097592
-0.04535647 0.053716335 -0.03698087 -0.009008594 0.034950893 -0.020315556 -0.00096868246 0.0057173707
-0.051728282 -0.008235174 -0.027289191 0.00794051 0.014544284 0.025127292 0.0049689943 -0.015533813
0.0043749227 -0.021370519 0.01887155 0.04828583 0.011340869 0.009989382 0.036606453 -0.006457808

static_variable_selection.single_variable_grns.encoder_length.resample_norm.norm.weight f4 [32]
00000000: e730 793f 27ac 753f b40e 8b3f dfee 823f
00000010: ac35 7f3f 92cf 813f 9a7b 803f 0adc 7f3f
00000020: fe79 6c3f d092 893f c04c 773f c9fa 7f3f
00000030: 2a31 853f 6fb7 7a3f 903b 823f d4b5 803f
00000040: d9d4 693f 0497 7b3f 8785 793f 5d9f 7c3f
00000050: a601 853f c5e2 853f e4e6 7c3f 47e4 7a3f
00000060: 8c03 813f 86e2 7b3f a073 843f 1ece 873f
00000070: 61f9 813f ff9b 823f 70ab 853f 1fae 7e3f
0.97340244 0.9596581 1.0863862 1.0229148 0.9969127 1.014147 1.003772 0.9994513
0.92373645 1.0747929 0.96601486 0.9999204 1.0405629 0.9793615 1.0174427 1.005549
0.91340405 0.98277307 0.9746937 0.9868067 1.0391128 1.045983 0.9878981 0.98004574
1.0079207 0.9839252 1.0347786 1.0609777 1.0154229 1.0203856 1.0442944 0.9948444

static_variable_selection.single_variable_grns.encoder_length.resample_norm.norm.bias f4 [32]
00000000: 732d 06bd 2879 013c 3de5 9bbc 1a57 dabb
00000010: 78e6 04bc eddc 833c b1f1 2d3c 1e0d 483b
00000020: 90c1 713d d7fb 81bd eb8f b83c 1824 42bb
00000030: f618 823b f7b1 21bc e83f 73bc ddc2 393c
00000040: 3f46 3cbd 725a 32bd 8751 21bb 5e2d cf3c
00000050: 0e64 193d 42e3 c93c 6c6e cc3a 180d d0ba
00000060: b8b4 273c b999 9bbc c466 693d 6ce4 58bd
00000070: 7db9 053c 03e7 f23c 0462 a6bb d6db 313c
-0.032758188 0.007902421 -0.019030208 -0.0066632153 -0.008111589 0.016096557 0.010616706 0.0030525397
0.059022486 -0.06346863 0.022529563 -0.0029623564 0.0039702607 -0.00986909 -0.014846779 0.011337963
-0.04596543 -0.043543287 -0.0024615244 0.025290187 0.037448935 0.024644498 0.0015596873 -0.0015873043
0.010235958 -0.0189942 0.05698277 -0.052952215 0.0081619 0.02965117 -0.0050776023 0.010855636

static_variable_selection.single_variable_grns.encoder_length.fc1.weight f4 [16, 16]
00000000: 938c 96be 3350 c4be 56de 2dbe b213 2fbe
00000010: a3de fc3e 7fd5 aebe 9278 d73c 8b36 2c3d
00000020: 2d69 06bd e22e 463c 3733 aebe ab8a 3bbe
00000030: 37d8 d5be c8fc 153f 3df3 a3be 0fd1 9b3e
00000040: e9ac 59be 96a1 1e3c b1d7 8c3d f715 39bd
00000050: 6603 44bd e7c2 e4be 0624 8a3e 0a6c cf3e
00000060: dbad 08be 11c1 14bd 8eb2 5bbe 9195 82be
00000070: 8548 233f 5809 c9be f0ec 313e 529d 033f
00000080: 9436 79be 504a e2be 8f5a fa3d 719a c3bd
00000090: 84bc bbbe a6b2 6b3e 66c8 7dbf 67eb 013e
000000a0: bbe7 24bb c359 b6bc 730e 7c3e 9331 b13e
000000b0: 4fbf 04bf 7463 f93e f92f 62be e0bd c8be
000000c0: bc9e 8c3e 36e6 c63d edb9 54be 21e6 313f
000000d0: 5c22 3d3d 90a4 83be 8921 4bbe 1429 a63e
000000e0: db42 1bbe ba87 8a3e 6b50 d8bb 591b 10bf
000000f0: 075c 16bd 983e 023f 1b35 d03c 989c 723e
00000100: bd49 e23e 316d b8bd abb4 8b3e f852 0c3f
00000110: bc9d 1d3e aa5c bbbc 10cb a23e d9ff eebe
00000120: ee18 fabd 1252 05bf bfa1 2dbf a439 bb3e
00000130: 3cff cebd 9d40 2d3e 07a4 033f 0fb7 893e
00000140: 6e77 71be 6a1b 6bbe d139 923e 247b 1e3f
00000150: 8665 f8be 7c61 0d3d d9f7 423e f116 713d
00000160: 07a7 26be 4a2c 173f 3d86 6bbd 8198 cfbd
00000170: 3284 103f 3e02 19bd 27eb e33d cf18 833e
00000180: 0ded 653e c9f7 1fbd 8795 d5be 8353 44bd
00000190: 479a cbbe 7ca3 fe3c ac5a e2be b913 bfbd
000001a0: e3a7 423f fc33 cd3e 302a 363d acf7 d4bd
000001b0: 3c55 733e de85 b83c dc94 eabd 444c 1e3f
000001c0: 6e32 263e 7c03 8abe 2172 2f3f 32f0 0bbf
000001d0: a8be ad3e 36b7 f9be b25c 21bf 8dc6 91be
000001e0: cfac 97bb 8e0e 4c3f ee1e 323d a8a1 59bc
000001f0: 172c 1fbe 71e2 00be a688 393f fba4 a2be
00000200: 8e6e 073e 9979 123e d873 26be 66ec 84bd
00000210: 1fb4 143e ae03 713e 000d 3fbc a919 8d3e
00000220: 4d08 83bd 4d77 01bd 0918 c03e 210a 023e
00000230: 7559 063e 45ce 36be 04aa 84be 4540 b1bc
00000240: 7e14 e5bd 8cdc d9be 40b7 20bf 937a c1bd
00000250: d2e8 c8be 9f03 5c3d 65c2 0bbe 47d4 44bc
00000260: d02f 29be bf21 77be d523 23bf c7e1 08bd
00000270: 8a5f cfbe d678 fcbe 441a 03be dc83 9e3d
00000280: b38b 6f3e 7b4e 0bbf 0164 acbd 9975 5a3e
00000290: dde6 563d ea56 9a3e 9ad0 ac3e f9df d9bd
000002a0: ff3d 39be 6ba9 093f 3ae0 18be b270 99bd
000002b0: 0f61 43bf 1bf1 9fbe 037f 4dbe cb59 89bd
000002c0: d20d 0bbd c6aa cebe e256 3e3e b1c7 3e3e
000002d0: b9da d3be 04f5 423f 5e10 5a3f 87ac 023f
000002e0: 444f 5f3d f040 1cbf a84b d73e 1c12 403e
000002f0: 2c35 8bbd e116 dcbc cca4 853d 9eb6 5a3c
00000300: d3f3 a03d 9fbc d73d 6238 323e ce63 ab3e
00000310: dd08 9fbe 2e16 17be ba90 f33e 7318 883e
00000320: cb48 a6be 62e9 9c3e 1407 eab9 0e25 76be
00000330: c11b b73d e98b d2be 7ab6 683e fe84 b63d
00000340: 3aec b83e 71fc 943d 8bb7 8c3e 6b82 64be
00000350: c84c 40bf 8156 c03b b4f4 2cbf 1d0d 94bc
00000360: fe27 11be 90be 41bf 7aae bfbe 05fa e83e
00000370: cb76 40bf 8cc8 82be b86a 4fbf de9c e7be
00000380: e75d 793d 7833 27be 20c7 493e c7e3 823e
00000390: 74f5 a63c 4598 27be c968 39be d15d 743e
000003a0: 94b6 3b3e ff6f 4fbe b194 34bf 4101 8abe
000003b0: b486 ac3d 496c e9be 51d7 a73e b82e db3e
000003c0: 1f54 92be 6b2c 76be b9c6 9abe 8eaf f13e
000003d0: d40c 063f 9514 1fbc f9f6 1abd b0ba 363f
000003e0: 79f3 fcbe 17e2 ebbd f0ca 9dbe e65c dbbd
000003f0: f59c c23d 1c7c b3be 25c0 afbe 0a0e 433f
-0.29404125 -0.38342437 -0.16979346 -0.17097357 0.49388608 -0.3414726 0.02630261 0.042044204
-0.032815147 0.012096139 -0.3402345 -0.18314616 -0.4176652 0.5858884 -0.32021514 0.30432937
-0.21257366 0.00968208 0.06877077 -0.045186963 -0.047854804 -0.4467995 0.2698061 0.40512115
-0.1334757 -0.036316935 -0.21454832 -0.25504735 0.6378253 -0.3926494 0.1737554 0.51411927
-0.24337226 -0.4419732 0.12224304 -0.09550942 -0.36667264 0.23017368 -0.9913391 0.12687455
-0.0025162536 -0.022259599 0.24614887 0.34608135 -0.51854414 0.4870869 -0.22088613 -0.39207363
0.27464855 0.09711878 -0.2077405 0.69491774 0.046175346 -0.2571149 -0.19837011 0.32453215
-0.15162222 0.27056676 -0.0066013834 -0.5629173 -0.036708858 0.5087676 0.025415948 0.23692548
0.44196883 -0.090052016 0.27286276 0.548141 0.15392202 -0.022871334 0.3179555 -0.4667957
-0.12211786 -0.52078354 -0.6782493 0.36567414 -0.10107276 0.1691918 0.5142216 0.26897475
-0.23580715 -0.22959676 0.28559735 0.6190665 -0.48514956 0.034516796 0.19039859 0.05885977
-0.16274653 0.59051955 -0.057501066 -0.1013651 0.56451714 -0.037355654 0.11128836 0.25604865
0.22453709 -0.039054666 -0.41715643 -0.047931205 -0.39766142 0.031083815 -0.44209802 -0.09329934
0.76037425 0.40078723 0.044473827 -0.10398802 0.23762983 0.02252477 -0.11454174 0.6183512
0.16230175 -0.26955783 0.6853352 -0.54663384 0.33934522 -0.4877259 -0.63032067 -0.28471795
-0.0046287547 0.7970971 0.043486528 -0.013283171 -0.15544163 -0.1258638 0.72474134 -0.31766495
0.13225767 0.14304198 -0.16255128 -0.06490402 0.14521836 0.2353656 -0.011660814 0.2755864
-0.063980676 -0.031607915 0.37518337 0.12699176 0.13120063 -0.17852123 -0.25910962 -0.021637091
-0.11185549 -0.42551076 -0.6277962 -0.09447207 -0.39240128 0.05371439 -0.13648374 -0.0120135015
-0.16522145 -0.24133967 -0.6372655 -0.033418443 -0.40502578 -0.4931094 -0.12802988 0.07739994
0.23393135 -0.54416627 -0.08417512 0.21333922 0.052466262 0.30144435 0.337529 -0.106384225
-0.18090056 0.53774136 -0.14929286 -0.07492198 -0.76319975 -0.31238636 -0.20067982 -0.0670658
-0.033948727 -0.40364665 0.1858783 0.18630864 -0.4137781 0.76155114 0.85181224 0.51044506
0.054518953 -0.61036587 0.4204991 0.18756908 -0.06797251 -0.026866378 0.06525573 0.013349203
0.07859006 0.105340235 0.17404321 0.33474582 -0.3106145 -0.14754555 0.47571355 0.26581153
-0.32477412 0.30646807 -0.00044637232 -0.24037573 0.089408405 -0.41122368 0.2272586 0.08912085
0.36117727 0.07274712 0.27483782 -0.22315376 -0.7511716 0.005869687 -0.6756089 -0.01807266
-0.14175412 -0.756814 -0.37437803 0.4550325 -0.75181264 -0.2554363 -0.81022215 -0.45236868
0.060880568 -0.16328228 0.19704866 0.25564405 0.020380713 -0.1636668 -0.18106379 0.23863913
0.18331367 -0.20257567 -0.70539385 -0.26954082 0.0842413 -0.45590428 0.3278146 0.4280908
-0.28579804 -0.24040382 -0.30229738 0.4720425 0.52363324 -0.009709497 -0.037833188 0.7137861
-0.49404505 -0.115177326 -0.30818892 -0.10711078 0.095025934 -0.35055625 -0.34326282 0.76193297

static_variable_selection.single_variable_grns.encoder_length.fc1.bias f4 [16]
00000000: 56a0 053c 9849 98bc c23e 3bbc 18fc 333c
00000010: b2b3 8d3c 0174 81bc 2ff5 ad3c d284 893c
00000020: b021 b3bb ba76 2339 7fc9 a23b b7ec 18bd
00000030: a5b9 d5bb 00f3 57bc be78 07bd ca2f ae3b
0.008155903 -0.01858978 -0.011428537 0.010985397 0.0172976 -0.015802385 0.021235077 0.016786966
-0.0054666623 0.0001558912 0.004967868 -0.037335124 -0.0065223747 -0.013180494 -0.033074133 0.0053157555

static_variable_selection.single_variable_grns.encoder_length.fc2.weight f4 [16, 16]
00000000: 97b4 a6bb 6cdc 693e e9b5 3f3e eabc 493e
00000010: 57c2 193f 5d32 09bf a345 203f 512c e03c
00000020: a0bf b7be bf9c 9abd ba40 c0bd 5bbb bebe
00000030: 6f2a 1ebe 058c e4be c905 07be f6f2 1abd
00000040: 624e c4bd 6fe8 933e 17cb e93d 0330 c6be
00000050: c762 363d a9c2 9bbc a5dd d3be 584a 6e3e
00000060: 958b b7be 0181 05be 14a2 123e 1a1f 55bb
00000070: 3a73 7abe ed97 18be 091f 7d3e 0da9 003f
00000080: 9895 1dbe a8aa 0cbd d7ff a43e fece 82bd
00000090: 66ac cebe 57b8 653e 92b9 17be b79c dabe
000000a0: 5d96 b83e 22ae 033f 20c5 a0be cd47 143f
000000b0: 1ea2 093e 00ac 80be 1ac5 d6be 19ed a43d
000000c0: 8b5e b73e 6826 903e 5fa1 b4be be7a 013c
000000d0: b37a 863e 6e69 e5bd f572 943c e8ed 003e
000000e0: b058 773e fce3 eebd a445 7cbe 213e f4bd
000000f0: 0e66 49be 13c1 c0bd 5e01 77be 8247 a2be
00000100: 95f6 a0be 7c4d 073e 4694 3b3f c975 753d
00000110: 2d17 c5be c9ff 44be 02e3 5bbe b293 553e
00000120: 3309 bdbe 1b77 7dbe 8ee2 8a3d d17e 0cbe
00000130: b04c 81be 7c9c fd3e 1ea7 ddbd 2ae7 8c3e
00000140: aa74 343e 11c2 b9be 543c 27bf 9308 11be
00000150: a018 1dbf e11d a8bd beb1 cd3d 9b6e 4f3e
00000160: 2a04 b7be 7c7c 09bd 98ad 28bd 9470 28bd
00000170: 8325 b33c f81e 133e c9c8 1bbe 7b16 233e
00000180: 8a37 a0be 912b 03be 9bbf d03d 4fc8 21be
00000190: 3c65 24be d713 8c3e f29e 2ebf d74c c03e
000001a0: d181 893d 6e41 f8bd 41c5 343e 43c5 85be
000001b0: 5550 50be ec75 e1bc 666e cabd c1af 6c3f
000001c0: f184 763e e163 e53d 409e 613e ef0c 4fbe
000001d0: be56 233f 8caf 9a3f d2d9 e1bd 221e 413f
000001e0: 7178 7f3e db03 cb3d 2d99 3e3e 2894 a63e
000001f0: 86e2 ebbe 4213 823e 963b 07be 0762 bbbd
00000200: 3613 293e a0c3 a53d b333 a53e 94e9 183e
00000210: ee4e 6d3d bedc 5a3f 644e f3bd 6925 26be
00000220: dca0 93be 3d45 0e3e b23a f6bc f6ca 663e
00000230: e46e ea3c 5c9d 2b3e 33a2 a2be 8d6f b63e
00000240: 44ea 143f be98 57be fbe8 383f 2cd2 e63e
00000250: 323c dcbe 8a53 843c ff16 043f aed6 e3be
00000260: b0bb 993e 5c19 cabe 4200 21be cc23 2e3f
00000270: 4c79 793f 95b9 0c3f 2eef 07bf 2f69 133e
00000280: ea37 113f 5483 08bc 4079 9e3e 7a24 36bd
00000290: a92c f6bd d43d 0dbe 3731 ad3e 9617 3dbe
000002a0: 994a 263f 2cba c33d 4a8f a33e 18b5 03bd
000002b0: 5d20 6a3e 9a37 323e 4188 f9be 2566 a13d
000002c0: 3cd0 aabe 2410 dd3e a5f8 12be d9ca 02bf
000002d0: 389c 2a3f 4a89 0cbe e24c e63d 59b9 28be
000002e0: ef28 8a3e 852e 7b3e 9e5e 3e3e f243 4d3d
000002f0: 9a7f d7be 5ae8 ee3d 6131 8e3e bd81 f13c
00000300: 054d bc3e 0606 e8bd 6ab5 0b3e 1525 6cbd
00000310: ea4b eebe 2292 31be 56f9 7cbe d8e2 7bbe
00000320: 2dc0 cc3c f361 adbd d1ab 50bc ea63 873e
00000330: 165b 9f3e bbe4 8b3e 7963 10bf a1cb 6ebe
00000340: 3336 a9be fd20 343f 021b e73d d8b3 7cbe
00000350: 01d7 a7bd 8308 29be 62c6 a63e 30b9 04be
00000360: 07ea aabd 7477 3bbf 620c 813e d0c2 abbd
00000370: fa86 c6be b7ff a0be d34d ff3e 9f52 263d
00000380: a5a2 57bf d4b0 0c3f dd15 923e ff8a 42be
00000390: 8607 1d3e d994 d8be c8d8 dbbe 2458 81bf
000003a0: beff e43d 845e 44bf 7d17 5ebe bc26 7b3d
000003b0: dc85 0bbf 39e8 23bf 4ac2 f6bd d025 db3e
000003c0: df66 85be 6984 f4bd aa73 4c3d c3df 2abf
000003d0: 340a dfbe ef3a 72be 8a42 84bd 452b ba3e
000003e0: 6bd6 1bbf a3fe eabe 3ecc 4f3e ac03 cfbe
000003f0: b813 86be 8fd0 ccbd c7be 833e d61b 263e
-0.005087446 0.2283799 0.18721737 0.19700971 0.60062164 -0.53592473 0.6260626 0.027364882
-0.35888386 -0.07549428 -0.093873456 -0.37252316 -0.15445875 -0.44638076 -0.131858 -0.03782936
-0.09585263 0.2888827 0.114156894 -0.38708505 0.044527795 -0.01901372 -0.4138004 0.23270547
-0.3584868 -0.13037492 0.1431964 -0.0032519759 -0.24458018 -0.14901705 0.2471887 0.5025795
-0.15389097 -0.034342438 0.3222644 -0.06387137 -0.40365905 0.22433601 -0.14816883 -0.4269769
0.36052218 0.5143758 -0.31400394 0.5792206 0.13440749 -0.25131226 -0.41947252 0.08053035
0.35814318 0.28154302 -0.35279366 0.007902799 0.26265487 -0.1120175 0.018121222 0.12590754
0.24154925 -0.11664578 -0.24635941 -0.11925913 -0.19667837 -0.09411826 -0.24121615 -0.3169518
-0.31438127 0.13213152 0.7327312 0.05992678 -0.38494244 -0.192382 -0.21473315 0.20857123
-0.3692108 -0.24752466 0.06781493 -0.13720252 -0.2525382 0.4953345 -0.10822891 0.27520114
0.17622629 -0.36280873 -0.6532643 -0.14163427 -0.613657 -0.08208824 0.10043667 0.20257036
-0.35745364 -0.033565983 -0.041181177 -0.041122988 0.021868473 0.14367282 -0.15213312 0.15926544
-0.31292373 -0.12809588 0.10192796 -0.15799068 -0.16054243 0.27358887 -0.6821128 0.37558624
0.06714214 -0.12121855 0.17653371 -0.2612706 -0.20343144 -0.02752205 -0.09884338 0.9245568
0.2407415 0.11200691 0.22033024 -0.20219778 0.63804233 1.2084823 -0.11027874 0.75436604
0.24948289 0.09912845 0.1861312 0.3253491 -0.4607126 0.25405318 -0.13206324 -0.091495566
0.16511235 0.08093953 0.32266006 0.14932853 0.0579366 0.85493076 -0.11880186 -0.16225208
-0.28833663 0.138936 -0.030057285 0.22538361 0.02861733 0.16759247 -0.31764373 0.35631981
0.5816996 -0.2105436 0.722305 0.45082223 -0.43014675 0.016153116 0.5159759 -0.44499725
0.30026007 -0.39472473 -0.15722755 0.6802337 0.9745071 0.54970676 -0.53099334 0.14395593
0.56725943 -0.008332092 0.3095188 -0.04446838 -0.12020237 -0.13793117 0.3382661 -0.18466029
0.64957577 0.09556994 0.31945258 -0.032155126 0.22863908 0.17404023 -0.48736766 0.07880811
-0.33361995 0.43176377 -0.14352663 -0.5109077 0.6664462 -0.13724247 0.11245133 -0.16476955
0.26984355 0.24529465 0.18590781 0.050113626 -0.4208954 0.11665411 0.27772048 0.02948081
0.3677751 -0.11329274 0.13643423 -0.05765255 -0.46542293 -0.17340901 -0.24704489 -0.24598253
0.02499398 -0.08465948 -0.012736277 0.26443416 0.3112418 0.27322945 -0.56401783 -0.23319866
-0.33049163 0.70362836 0.11284448 -0.2467798 -0.081953056 -0.16507153 0.3257323 -0.12961268
-0.083454184 -0.73229146 0.2520476 -0.08386767 -0.38774854 -0.31445095 0.49864063 0.040606137
-0.8423255 0.5495732 0.28532305 -0.18998335 0.15334901 -0.42301062 -0.42938828 -1.0105023
0.111815915 -0.7670672 -0.21688648 0.061316237 -0.5450113 -0.6402622 -0.120487764 0.42802286
-0.26055047 -0.11939318 0.049914993 -0.66747683 -0.43562472 -0.23655294 -0.06458004 0.36361137
-0.6087405 -0.45897397 0.20292756 -0.4043249 -0.2618692 -0.10000717 0.2573149 0.16221556

static_variable_selection.single_variable_grns.encoder_length.fc2.bias f4 [16]
00000000: 57a8 3e3d 4ff6 29bc 6c24 8abc 7012 f13c
00000010: d20c 073b 8fdb 033d 21a2 c73b e01d e7ba
00000020: 47e3 8a3c 0384 dcba 98fd bb3c cfa1 2ebc
00000030: 54a5 8dbc 9fe9 bdbc a999 373b d75c 513c
0.04654726 -0.010373666 -0.01686307 0.029427737 0.0020607007 0.03219181 0.0060923253 -0.0017632805
0.016954077 -0.001682401 0.022948071 -0.010658695 -0.017290749 -0.023182688 0.0028015173 0.012778482

static_variable_selection.single_variable_grns.encoder_length.gate_norm.glu.fc.weight f4 [64, 16]
00000000: b744 4abe 0980 e93c 6682 f93d 9686 d0bd
00000010: ec3d c6bd c798 6cbe 32fd 3a3e 7107 efbd
00000020: c60f e0bd 8730 e53c d43d 483e abd6 e43d
00000030: 7323 043e fcb0 20bd bb73 fd3d 7d2e 2f3d
00000040: 5c5a 873e c59b b93c 501a debd 714c 443e
00000050: b722 003e 7bb7 673e 5178 80bc 06d6 5fbe
00000060: 35fa c53d d331 a9bd 1189 153e 1a8a 5bbe
00000070: 0ada a6bc a37e 12bd cf14 9dbd 44ee 11be
00000080: 98f6 153e 43b2 21bd 5c96 d5bb 7238 09be
00000090: bfae 91bc aa19 dc3d 48af 5a3e b2d2 85bc
000000a0: 5839 05be f672 8c3e e36d 063e c42f 60be
000000b0: c447 883e 384f 6b3e a857 9e3c 8a0c 053d
000000c0: 848f b23d 07f7 04be 994f 723e 668a 21bd
000000d0: fbd5 9c3e dc08 803d 37fc a43d 6c90 003e
000000e0: a8d4 68be 1531 753e c194 9cbc a2ed 723e
000000f0: ff78 44be d39b 14bd 067f 2b3e 0af8 443e
00000100: 2e8f 083e b592 cb3d 56bd 5cbe 99b1 9cbb
00000110: 4790 aabd 9b42 453d f7f0 81be a624 6fbb
00000120: db0e 143e e542 0bbe 0fbe 54be da1f 6a3e
00000130: 6c9c 7f3e f0fd 183e be18 513c d462 1fbe
00000140: 1b93 e13a 7256 5c3e 7d37 643e 8af1 27be
00000150: 20e6 0abe 28f6 f93d c75f bf3d 302e 9e3b
00000160: 0a37 453e bfb2 29bd b042 633d cb95 3dbe
00000170: 991a c53d ea32 e0bd e0b6 593d bf55 143d
00000180: 7c5e 6ebd 7290 513e 4c5f 293e fa8b 823e
00000190: edf9 0b3e 7909 713e e08d 343e 16a4 483e
000001a0: 8d77 23be 0f6d 72bd 0058 49be f365 21be
000001b0: 153e 74be 663e 293e 0bea 20be b5d9 893e
000001c0: 9346 f6bd 342f e6bd b846 89be 9fd9 563e
000001d0: 810e 563e f367 16bc d335 833e 8dff 843e
000001e0: 257b d9bd 38cf e33d 4de3 4d3d fa01 663e
000001f0: d868 d0bd 0bb9 77be b5f5 6f3e b096 2cbd
00000200: 6084 b636 340e 9d3e 9b49 b3bd 59da 48be
00000210: f6bf 6ebe 07ba 16be 04af 1abe c386 ecbd
00000220: b9f4 923e ac51 cabc ee1e 003e 7dc5 573e
00000230: 7684 d6bd d044 173e 76e0 77be fccb 423e
00000240: c9ce 47be 9250 8dbd 164c 0e3e 01f6 5fbe
00000250: 103d c7bc 2f5f e53d 4a0d 8d3d f3bb 003e
00000260: c0a1 623c 1075 66be 76c7 33bd bc2f 413d
00000270: e356 083e ee73 8cbd 32f3 4b3e cdcb 563e
00000280: e8ae 203e 2a82 e3bd 9d94 90bd 0d29 a1bd
00000290: e5eb 513c d649 30be 4f25 833e fa0a 0d3e
000002a0: 127c 8bbb 6611 3e3e 9c5a a13d 9989 1d3e
000002b0: 4b05 0abe 9203 5cbc 099a 56bc aa17 1bbe
000002c0: 0414 543e f3f0 a5bd ca7a 99bd a087 763d
000002d0: 6d0e f1bd 5d45 8a3e 8e34 24be 6947 173e
000002e0: 1f29 1d3e f696 c3bd 79ac b1bd 6ceb 583e
000002f0: 46e7 25be fd0f a73d 41c0 b23c 1839 9c3d
00000300: 6733 343e 4bbc 673e 7daa 7bbe 75bb 1bbe
00000310: 85fe e53d 8a08 813e 9c39 853e 86db 9c3e
00000320: 6621 5a3e 848e 1fbd d189 3fbe 4ddb 5dbe
00000330: bc72 42bc daf4 4f3d c1a2 173e 8b46 e93d
00000340: 0b14 70be 275a 463c bd69 4ebe f84d 173e
00000350: 96d4 9cbc 5efb 34bc 794e b1bb dcbd b8bc
00000360: 93ed 393e 05d8 bf3d 0209 67bd 23ec 8abe
00000370: 09d6 5b3e 1f38 6dbe a073 3d3e 832c efbd
00000380: be02 ad3c 8d18 cdbd 3bf7 90bc 36d2 dc3d
00000390: d29b 30be 8790 5b3e 2548 eabc ea0e 263e
000003a0: 1eb7 223e 9e2a 02bd 070f 2f3d 73c3 75be
000003b0: 35ac 743e dd66 3ebe d682 37be 9777 8d3e
000003c0: 80aa aabd 25ac 02be 920f 3d3e 7457 7cbe
000003d0: e4cc d6bc 3c3b 033e 3248 06be 8e6a 50be
000003e0: e293 abbd 21a6 0a3e 2a0d 533e 8561 edbd
000003f0: fcdc 483e efad 3dbd 1d8d 85be 077e 3fbd
-0.19752775 0.028503435 0.12183075 -0.1018192 -0.096797794 -0.23105155 0.18260649 -0.11671341
-0.109405085 0.027977241 0.19554836 0.11173757 0.12904148 -0.039231285 0.123755895 0.042768944
0.26436126 0.022657285 -0.108448625 0.19169785 0.12513243 0.22628586 -0.015682371 -0.21858987
0.09666864 -0.08261456 0.14603068 -0.214394 -0.020367641 -0.0357653 -0.076699845 -0.14251047
0.1464485 -0.039476644 -0.0065181684 -0.13400438 -0.01778352 0.107470825 0.21355927 -0.016335819
-0.13010156 0.27431458 0.13127856 -0.21893221 0.26617253 0.22979438 0.019328907 0.03248266
0.0871878 -0.12984858 0.23663177 -0.039438628 0.30632004 0.0625169 0.08055919 0.12555093
-0.22737372 0.23944505 -0.0191139 0.23723462 -0.19186781 -0.036281418 0.16747674 0.19235244
0.13335869 0.099400915 -0.21556601 -0.0047819135 -0.083283 0.048159223 -0.25379154 -0.003649035
0.14458792 -0.13599737 -0.20775627 0.22863713 0.24962014 0.1494062 0.012762247 -0.15565044
0.0017209979 0.21517351 0.22286792 -0.16400734 -0.13564348 0.12205154 0.0934444 0.0048272833
0.19259277 -0.04143023 0.05548352 -0.18514173 0.09624214 -0.10947211 0.05315292 0.036214586
-0.058195576 0.20465258 0.16540259 0.2549742 0.13669558 0.2353877 0.17632246 0.19593844
-0.15963574 -0.059186038 -0.19662476 -0.15761547 -0.23851807 0.1652771 -0.1571428 0.2692391
-0.1202518 -0.11239472 -0.26811767 0.20981453 0.2090397 -0.009180057 0.25627002 0.2597622
-0.10619191 0.11123508 0.0502656 0.22461691 -0.10176247 -0.24191682 0.23433574 -0.042135894
5.439433e-06 0.306749 -0.087542735 -0.19614543 -0.23315415 -0.14719401 -0.15105826 -0.11549141
0.28702334 -0.024697147 0.12511799 0.2107143 -0.10474484 0.14772344 -0.24206719 0.19023126
-0.19512476 -0.06900133 0.13896212 -0.21871187 -0.024321109 0.111997955 0.068873 0.12571697
0.0138325095 -0.22505593 -0.043891393 0.047164664 0.13314395 -0.06858049 0.1991699 0.20976181
0.15691721 -0.11108811 -0.07059596 -0.07869158 0.012812589 -0.17215666 0.25614402 0.13773718
-0.0042567337 0.18561324 0.078786105 0.1538452 -0.13478582 -0.013428586 -0.013098248 -0.15145746
0.2071076 -0.08102598 -0.07494123 0.060187936 -0.117703296 0.27006045 -0.16035673 0.14773335
0.15347718 -0.09550278 -0.08675475 0.21183556 -0.16201505 0.081573464 0.02182019 0.07628077
0.17597733 0.22630422 -0.24576755 -0.15208228 0.112301864 0.25201827 0.26020515 0.30636233
0.21301803 -0.038954273 -0.18704917 -0.21665688 -0.011868175 0.050770618 0.1480818 0.11390408
-0.23445146 0.012106455 -0.20157523 0.14775836 -0.019144338 -0.011046259 -0.005410966 -0.02255147
0.18157034 0.09367374 -0.056405075 -0.27133283 0.21468367 -0.2316594 0.18501139 -0.11678412
0.021119472 -0.10014448 -0.017696014 0.10782282 -0.1724694 0.21441852 -0.028598854 0.16216627
0.15890166 -0.031778924 0.04273894 -0.24000339 0.23893817 -0.18593927 -0.17921004 0.27630302
-0.083333015 -0.1276098 0.18462971 -0.24642736 -0.026220746 0.12815565 -0.13113478 -0.20353147
-0.08377816 0.13539936 0.2061049 -0.11590866 0.19615549 -0.046308454 -0.26084223 -0.04675105

static_variable_selection.single_variable_grns.encoder_length.gate_norm.glu.fc.bias f4 [64]
00000000: ef64 b2bc 3298 4cba ef60 c3bc ef77 daba
00000010: 1fa2 21bc 4e74 6d3c 3fe1 9cba 73a1 f63b
00000020: 5107 2b3d 7f11 37bd aad6 723c 4cb0 9b39
00000030: 3d72 543b d957 ae3a d71d 39bc 2db8 923b
00000040: 317c 39bd 13f3 acbc a3ce 1dbc 7902 ca3b
00000050: 3f85 0a3d f8ad 843c addf e13b 51ac 5eba
00000060: e34b c33b 9755 81bc 98d1 183d 1cdf 06bd
00000070: a9a8 a93b aa92 933c cff9 f5bb 84f8 613b
00000080: 65b6 2ebc 8b40 cebb cdec cdba 7b47 cf3a
00000090: e915 163a f1eb 03bc 2be3 3a3c ac55 72bc
000000a0: 228a 5a3c c0ee f2bb 57bf 05bb 35b0 c3ba
000000b0: ed89 133c 28fd 0d3c 631c 19bc 5971 4fbc
000000c0: b11c 2aba fad5 46bb 18fd 6cba 6d14 fdbb
000000d0: f3e1 bcbc 0182 c139 3aa1 e3bb a2fa 9fba
000000e0: facd 85bb 2319 feba aa7b 91bc 1209 3bbb
000000f0: f710 91bb e155 a33b 931b 1f3c 60cb fabb
-0.021776645 -0.0007804661 -0.023849932 -0.0016667823 -0.009865313 0.014493061 -0.0011968984 0.0075265705
0.041755024 -0.04469442 0.014821688 0.00029695255 0.0032416724 0.0013301327 -0.011298618 0.004477522
-0.045284454 -0.021112 -0.009631786 0.0061648455 0.03381848 0.016196236 0.0068931193 -0.0008494305
0.005959974 -0.015787883 0.03730926 -0.032927617 0.0051775766 0.01801427 -0.007506586 0.0034480402
-0.010663603 -0.006294315 -0.0015710831 0.001581415 0.0005725311 -0.008051858 0.0114067 -0.014790934
0.0133385975 -0.007413715 -0.0020408237 -0.0014929833 0.009005052 0.008666314 -0.009345147 -0.0126613015
-0.00064892607 -0.0030339942 -0.00090403995 -0.007723382 -0.02305696 0.0003690869 -0.00694671 -0.0012205432
-0.004083392 -0.0019386153 -0.017759163 -0.0028539342 -0.004427071 0.004984603 0.009711164 -0.0076536387

static_variable_selection.single_variable_grns.encoder_length.gate_norm.add_norm.norm.weight f4 [32]
00000000: 47f1 783f f61c 723f b1d2 8e3f 0eb1 823f
00000010: cf63 803f a649 803f 26e7 813f a2e2 7c3f
00000020: a912 713f 3293 893f a311 783f 27a9 803f
00000030: a88f 863f 26c3 7d3f 8f3a 803f b331 7f3f
00000040: 1da0 6d3f 6b7a 793f 50aa 793f fde7 7a3f
00000050: a6f5 813f ad77 863f 5c82 7c3f 6714 7a3f
00000060: 49c1 803f 21be 7b3f 0249 833f 968f 873f
00000070: cb8c 813f 52c8 833f 0818 863f 7a6e 7e3f
0.9724316 0.9457544 1.1158048 1.0210283 1.0030459 1.0022476 1.0148666 0.98783314
0.941691 1.0748045 0.9690191 1.0051621 1.051259 0.991259 1.0017871 0.9968521
0.9282244 0.9745242 0.975255 0.98010236 1.0153091 1.0505272 0.9863641 0.9768738
1.0058986 0.9833699 1.0256655 1.0590694 1.0121092 1.0295508 1.0476084 0.99387324

static_variable_selection.single_variable_grns.encoder_length.gate_norm.add_norm.norm.bias f4 [32]
00000000: 04d9 10bd 4fb4 1f3c 7c13 e0bc 1157 4bbc
00000010: beba 90bb cb76 983c 0181 733c 9bd8 223b
00000020: 2a02 853d 09fc 8dbd ad71 7e3c 6e1e f7bb
00000030: 6f43 043c f23f 3ebc f16b acbc d86a 2a3c
00000040: 24d8 61bd 25f8 41bd 8ffe 01bc 1488 f43c
00000050: a8cd 093d 3482 ad3c 3ef2 9b3b 14c2 99bb
00000060: 2d41 683c 2aff 9dbc 861b 7a3d 384f 5dbd
00000070: 300d 193c c675 0b3d e953 b9ba e831 0c3c
-0.035363212 0.009747579 -0.02735304 -0.012410895 -0.0044167927 0.018611332 0.0148623 0.0024848345
0.064945534 -0.069328375 0.015530032 -0.0075414693 0.008072718 -0.011611925 -0.021047564 0.01040145
-0.05513777 -0.04735579 -0.007934227 0.029850043 0.033643395 0.02118025 0.004759102 -0.0046923254
0.014175695 -0.01928671 0.061061405 -0.054030627 0.009341523 0.034047864 -0.0014139387 0.00855682
