models/final_model.pth (torch, 214987 bytes, 315 tensors)

input_embeddings.embeddings.month.weight f4 [12, 6]
0.0 0.0 0.0 0.0 0.0 0.0 0.8130212 0.39420396
-0.1338943 0.58897865 -0.100516364 -0.8526164 -1.3703654 1.4607364 -0.12928513 0.5499299
0.5457008 0.51762736 -0.55947685 -0.1011177 0.89451444 -1.9528848 0.59882736 -0.8682691
0.39008224 -0.018610392 1.9687381 -0.115876 -0.9731686 -1.5935212 0.51070046 -0.90311766
-2.1173887 -1.179867 -0.6095127 -1.1688063 -1.9003861 0.15726244 -2.0845084 1.2041456
0.38752544 0.17658615 1.2118688 -1.4124941 1.373392 -0.9813491 -0.7817807 0.59626055
-0.23130918 -0.16071163 0.17724344 0.74304116 1.5439924 2.8131766 -0.0678224 -0.74762505
0.13270454 0.98778737 -0.61444783 0.7972568 -0.93616056 -0.92894626 0.674086 0.019025052
0.37597343 1.624146 0.68838525 0.49060315 1.4231176 0.30988544 -1.3877159 1.6203946
00000000: 0000 0000 0000 0000 0000 0000 0000 0000
00000010: 0000 0000 0000 0000 2822 503f 1ad5 c93e
00000020: 961b 09be 4ec7 163f 86db cdbd 1245 5abf
00000030: 2268 afbf 69f9 ba3f 5263 04be 35c8 0c3f
00000040: 0cb3 0b3f 3a83 043f e039 0fbf cc16 cfbd
00000050: e6fe 643f 21f8 f9bf c04c 193f e246 5ebf
00000060: dcb8 c73e d274 98bc 9cff fb3f 6550 edbd
00000070: 9421 79bf 81f8 cbbf 44bd 023f b832 67bf
00000080: 4c83 07c0 e205 97bf 0609 1cbf 729b 95bf
00000090: da3f f3bf 6809 213e 9668 05c0 7121 9a3f
000000a0: bc69 c63e 00d3 343e 841e 9b3f 9bcc b4bf
000000b0: 4fcb af3f b239 7bbf c822 48bf 88a4 183f
000000c0: 50dc 6cbe 9791 24be 4e7f 353e f237 3e3f
000000d0: 8ba1 c53f 160b 3440 78e6 8abd 5b64 3fbf
000000e0: b3e3 073e a2df 7c3f 744c 1dbf 0619 4c3f
000000f0: 38a8 6fbf 6ccf 6dbf e690 2c3f 6dda 9b3c
00000100: 977f c03e 04e4 cf3f 043a 303f 5630 fb3e
00000110: b828 b63f 4ea9 9e3e ada0 b1bf 1769 cf3f

input_embeddings.embeddings.day_of_week.weight f4 [8, 5]
0.0 0.0 0.0 0.0 0.0 -1.1632347 0.9291855 -0.3736393
-0.6636482 0.5889493 -0.011754544 1.8421412 -0.8270167 -1.696553 -1.5822402 0.44764
0.22354007 -0.60964 2.085102 -0.29559773 0.35066876 0.59094316 -0.24641979 -1.0802987
0.660736 -0.31003386 -1.4679967 -1.0581508 -0.7330681 0.5508446 0.13468684 -1.2228605
0.7738898 -0.57723093 0.5694617 -0.7764056 -0.72521096 1.522978 1.0710866 -1.7868688
00000000: 0000 0000 0000 0000 0000 0000 0000 0000
00000010: 0000 0000 e0e4 94bf 1adf 6d3f a64d bfbe
00000020: d9e4 29bf 62c5 163f 2296 40bc 48cb eb3f
00000030: 5eb7 53bf a628 d9bf d986 cabf 1231 e53e
00000040: b0e7 643e 5e11 1cbf 5072 0540 9658 97be
00000050: db8a b33e 0d48 173f 7855 7cbe 3a47 8abf
00000060: ff25 293f c2bc 9ebe 51e7 bbbf 7c71 87bf
00000070: 5aaa 3bbf 2704 0d3f 59eb 093e b186 9cbf
00000080: a41d 463f 68c5 13bf 3ec8 113f 84c2 46bf
00000090: 6da7 39bf f1f0 c23f 5e19 893f 1eb8 e4bf

input_embeddings.embeddings.hour.weight f4 [26, 10]
0.0 0.0 0.0 0.0 0.0 0.0 0.0 0.0
0.0 0.0 -0.26601845 -1.4737446 -0.1968551 -0.17582403 1.0467225 1.6740537
-0.12905121 0.06380818 0.44686377 -0.34826773 -0.2965085 -1.036363 0.11920022 0.06391819
-0.1177261 0.68481624 -0.5658489 1.18945 1.0869747 0.11946282 0.3561566 -0.17107028
-0.7306744 0.32895812 1.8766842 -0.29893732 -0.5393951 -1.2225814 -0.62992203 -1.1074021
-0.067139044 0.03739544 0.2029433 -0.7274405 1.8824035 -0.36037147 -1.4024601 -1.3181193
-0.7508301 -1.2015145 0.99124134 0.4820972 -0.3381799 -0.7298035 1.716925 0.96294194
1.0800433 -0.5653819 -0.6598332 -0.9940667 0.5322685 0.5563658 1.5267811 0.11929238
1.6285385 0.54386306 -1.5006973 -2.1391535 1.2921901 -0.48285264 -0.81919813 0.6262207
-1.5008956 -1.2161393 0.98242146 -0.24439588 -0.016407695 -0.7577144 -1.3714205 -0.6612218
-0.43753117 1.3039385 0.41555277 -1.2233833 -0.11143597 -0.7180126 1.002287 0.68040794
-0.7889015 0.82045466 0.08426851 1.3290036 0.09323429 -0.10431537 0.69942904 -0.7302268
1.7307832 -0.26815405 -0.9477166 0.09125772 0.8488935 0.013446879 0.047617637 1.2678772
0.15028635 -1.1854153 1.7502276 -0.51811504 -2.6256614 0.94757056 0.5797683 -0.29556057
-0.152027 0.52240807 -0.3930764 -0.7124633 1.1822014 -1.3861334 -1.0185081 -0.29349893
0.2745179 -0.37360948 -0.37452787 -0.17032759 -1.1583145 0.02674685 0.555506 -1.0846931
-0.18554224 -0.46329492 -0.7515788 -0.27397496 -0.30927104 -1.2215977 0.7359005 0.16523494
-1.1752021 1.5976555 1.0636556 -0.46224648 0.16949032 0.2248033 -1.1508179 0.56509596
-0.6980207 -0.8351444 0.3707211 -0.1706463 0.041425638 0.7334142 1.4127405 0.7310426
-1.7893436 1.1197731 -0.61216563 -0.055899892 -0.22665882 0.122503325 1.1548395 1.2124662
-0.4010565 -1.3848493 -1.1309543 0.8535818 0.31943846 -1.3346351 -1.0354395 1.3810072
0.24413541 -0.39798355 0.12034267 -0.39070445 -0.75071526 -1.1736814 -0.7250597 0.8913661
-0.56115854 1.124672 2.1069088 0.2934159 0.3790302 -0.24579649 -0.8464056 -0.058064286
1.0924611 0.5780831 -0.49231303 0.45832098 -0.2987567 -0.4703117 -1.0898964 0.01964593
1.4475696 -1.0063015 0.4060653 3.0849571 0.041314524 0.270962 0.4172681 -0.28221017
-0.48293912 0.71238804 0.5340372 -0.12123452 0.527025 2.6047845 0.05536361 0.4174217
1.3010529 -0.1771403 -1.5206575 -0.28779137 1.5690252 0.049318418 0.93632555 0.5846672
1.3880161 0.8911791 0.07357963 0.32714504 -0.71262 0.6662551 2.7122002 -0.91914415
0.38030398 -0.040027995 -0.21571395 0.7193816 0.27389234 -1.0636146 0.72840816 -1.0744616
1.3539245 0.82456523 -0.8823379 0.62123156 -0.62341803 -0.1879569 0.79450816 -0.41328573
1.1512282 -1.1541045 0.43352318 0.26030278 0.37353742 -0.11091747 -0.7872496 -1.0797397
0.0064804507 -0.25790027 0.6562475 -0.57132506 0.96146095 -2.3287797 -2.0509362 0.13104439
00000000: 0000 0000 0000 0000 0000 0000 0000 0000
00000010: 0000 0000 0000 0000 0000 0000 0000 0000
00000020: 0000 0000 0000 0000 9233 88be aaa3 bcbf
00000030: 6294 49be 370b 34be 01fb 853f 6447 d63f
00000040: 0026 04be ddad 823d 54cb e43e 2650 b2be
00000050: f6cf 97be 8ba7 84bf 3f1f f43d 8ae7 823d
00000060: 621a f1bd 1e50 2f3f 79db 10bf e63f 983f
00000070: fd21 8b3f eca8 f43d 285a b63e 0c2d 2fbe
00000080: 7a0d 3bbf 336d a83e 3037 f03f 500e 99be
00000090: cc15 0abf 8c7d 9cbf 9242 21bf 5abf 8dbf
000000a0: 3280 89bd f62b 193d 5ed0 4f3e 8a39 3abf
000000b0: 99f2 f03f 9c82 b8be d083 b3bf 22b8 a8bf
000000c0: 6736 40bf 3acb 99bf fec1 7d3f 72d5 f63e
000000d0: ea25 adbe 67d4 3abf 33c4 db3f 5d83 763f
000000e0: dc3e 8a3f debc 10bf d4ea 28bf 287b 7ebf
000000f0: c042 083f fd6d 0e3f 906d c33f 904f f43d
00000100: f373 d03f 9c3a 0b3f d916 c0bf e4e7 08c0
00000110: 7c66 a53f 7638 f7be f8b6 51bf 0050 203f
00000120: 591d c0bf 74aa 9bbf f97f 7b3f ea42 7abe
00000130: 6e69 86bc 92f9 41bf b58a afbf d545 29bf
00000140: 1604 e0be 75e7 a63f 55c3 d43e d397 9cbf
00000150: 8b38 e4bd accf 37bf f14a 803f 372f 2e3f
00000160: 73f5 49bf 5109 523f f894 ac3d ca1c aa3f
00000170: 9ff1 be3d 4ca3 d5bd c80d 333f 25f0 3abf
00000180: 4e8a dd3f 7d4b 89be 8e9d 72bf 54e5 ba3d
00000190: 1651 593f 4c50 5c3c b60a 433d cd49 a23f
000001a0: aae4 193e b0bb 97bf 7507 e03f 30a3 04bf
000001b0: d60a 28c0 fc93 723f b26b 143f b753 97be
000001c0: f7ac 1bbe 89bc 053f 4f41 c9be ff63 36bf
000001d0: 6052 973f d26c b1bf 795e 82bf 7e45 96be
000001e0: 9c8d 8c3e be49 bfbe 1ec2 bfbe 5b6a 2ebe
000001f0: a643 94bf 361c db3c a435 0e3f 39d7 8abf
00000200: c9fe 3dbe fe34 edbe 7867 40bf 7246 8cbe
00000210: c658 9ebe 505d 9cbf fa63 3c3f 5933 293e
00000220: 066d 96bf fa7f cc3f de25 883f 92ab ecbe
00000230: df8e 2d3e d632 663e 004e 93bf 21aa 103f
00000240: 7cb1 32bf 06cc 55bf 28cf bd3e e7bd 2ebe
00000250: eead 293d 08c1 3b3f aed4 b43f 9c25 3b3f
00000260: 3609 e5bf ba54 8f3f e3b6 1cbf 49f7 64bd
00000270: 4019 68be 06e3 fa3d c8d1 933f 1832 9b3f
00000280: 4757 cdbe be42 b1bf 1cc3 90bf 5684 5a3f
00000290: 708d a33e 53d5 aabf 4889 84bf d8c4 b03f
000002a0: a2fe 793e 80c4 cbbe 3876 f63d 6a0a c8be
000002b0: e02e 40bf 313b 96bf 839d 39bf 9230 643f
000002c0: 16a8 0fbf 41f5 8f3f 98d7 0640 9c3a 963e
000002d0: 3f10 c23e 13b2 7bbe 0aae 58bf d1d4 6dbd
000002e0: c4d5 8b3f 41fd 133f 7410 fcbe 0ca9 ea3e
000002f0: a3f6 98be b2cc f0be ba81 8bbf 80f0 a03c
00000300: f649 b93f 7dce 80bf cae7 cf3e f06f 4540
00000310: 6b39 293d 88bb 8a3e 2aa4 d53e da7d 90be
00000320: cc43 f7be 105f 363f a9b6 083f ce49 f8bd
00000330: 1ceb 063f cab4 2640 f4c4 623d 4cb8 d53e
00000340: e788 a63f 4464 35be e8a4 c2bf 6459 93be
00000350: d1d5 c83f 1c02 4a3d 08b3 6f3f c0ac 153f
00000360: 83aa b13f 5024 643f ebb0 963d 8e7f a73e
00000370: 446e 36bf b28f 2a3f b094 2d40 084d 6bbf
00000380: 34b7 c23e 65f4 23bd 1ee4 5cbe 6429 383f
00000390: 9e3b 8c3e 8624 88bf f578 3a3f f587 89bf
000003a0: 664d ad3f b516 533f e6e0 61bf 0809 1f3f
000003b0: 5398 1fbf c677 40be e364 4b3f 309a d3be
000003c0: 725b 933f b2b9 93bf c0f6 dd3e 6846 853e
000003d0: 4c40 bf3e b328 e3bd 3189 49bf e934 8abf
000003e0: f659 d43b 810b 84be d6ff 273f 5c42 12bf
000003f0: 4e22 763f ba0a 15c0 8a42 03c0 8030 063e

input_embeddings.embeddings.group_id.weight f4 [2, 1]
0.0 1.0699306
00000000: 0000 0000 7cf3 883f

prescalers.encoder_length.weight f4 [8, 1]
0.06453073 1.0088508 -0.6198226 0.7684413 -0.37222567 0.17871729 0.67269313 0.47326982
00000000: b028 843d 0622 813f b2ac 1ebf 92b8 443f
00000010: 5d94 bebe aa01 373e 9e35 2c3f 6c50 f23e

prescalers.encoder_length.bias f4 [8]
0.66908765 -0.9160186 0.8380628 0.45642048 -0.9390693 1.0749017 0.77731717 0.85835147
00000000: 5449 2b3f 3280 6abf 498b 563f f2af e93e
00000010: d866 70bf 6196 893f 42fe 463f ecbc 5b3f

prescalers.ND_center.weight f4 [8, 1]
0.30167198 -0.9704063 0.0822202 0.18103862 -0.7193885 -0.15289903 -0.7996831 0.94437945
00000000: c074 9a3e 8c6c 78bf 1063 a83d 3062 393e
00000010: d829 38bf 9091 1cbe 08b8 4cbf dac2 713f

prescalers.ND_center.bias f4 [8]
0.22669701 -0.81511444 0.09515756 0.13583115 0.85655534 -0.6113861 0.79012924 -0.97169924
00000000: 4323 683e 57ab 50bf f8e1 c23d 5217 0b3e
00000010: 3647 5b3f cd83 1cbf e945 4a3f 48c1 78bf

prescalers.ND_scale.weight f4 [8, 1]
0.16837871 -0.5014168 0.091902494 -0.63929474 0.11049509 0.3661096 -0.59333277 0.16711676
00000000: 786b 2c3e da5c 00bf 6037 bc3d d2a8 23bf
00000010: 404b e23d b872 bb3e a8e4 17bf a820 2b3e

prescalers.ND_scale.bias f4 [8]
-0.43852168 0.79632676 0.44634354 0.8426112 -0.12625933 -0.12331369 0.0593578 -0.7010097
00000000: ea85 e0be 12dc 4b3f 2487 e43e 5eb5 573f
00000010: 204a 01be e38b fcbd 2a21 733d 5f75 33bf

prescalers.time_idx.weight f4 [8, 1]
-0.74102867 0.7468804 -0.8619578 -0.76789194 0.28722048 0.19897753 -0.2699356 0.6754744
00000000: 0eb4 3dbf 8e33 3f3f 44a9 5cbf 9194 44bf
00000010: 900e 933e c4c0 4b3e 0035 8abe e4eb 2c3f

prescalers.time_idx.bias f4 [8]
0.30327308 0.7075474 -0.43691772 -0.13517699 0.5485702 -0.7845637 -0.8413588 0.08752733
00000000: 9c46 9b3e d421 353f aeb3 dfbe d66b 0abe
00000010: 196f 0c3f 2bd9 48bf 4a63 57bf 8741 b33d

prescalers.relative_time_idx.weight f4 [8, 1]
-0.054647535 1.0551956 -0.6743124 -0.48223948 1.3460561 -0.78398114 0.73029435 0.23576377
00000000: 18d6 5fbd a610 873f bd9f 2cbf 18e8 f6be
00000010: 914b ac3f fdb2 48bf 92f4 3a3f 0f6c 713e

prescalers.relative_time_idx.bias f4 [8]
0.22753018 0.422036 -0.83789444 0.007940732 0.4811542 0.102012806 -0.3142858 0.4956415
00000000: acfd 683e 1a15 d83e 4080 56bf d819 023c
00000010: d859 f63e 17ec d03d 12ea a0be b9c4 fd3e

prescalers.ND.weight f4 [8, 1]
-0.28159106 -0.6652405 0.5340432 0.06950087 -0.15793522 0.7993511 1.038074 -0.06299893
00000000: b42c 90be 344d 2abf 0eb7 083f 7956 8e3d
00000010: c5b9 21be 46a2 4c3f 9cdf 843f 9505 81bd

prescalers.ND.bias f4 [8]
0.58733636 -0.20133922 -0.019118741 0.1113977 -0.020484824 0.46049368 0.35541892 0.6200176
00000000: ad5b 163f de2b 4ebe e89e 9cbc 7a24 e43d
00000010: cacf a7bc d4c5 eb3e 78f9 b53e 79b9 1e3f

prescalers.EMBEDDED_WIND_GENERATION.weight f4 [8, 1]
1.1937827 -1.1350574 0.10064742 1.2289464 0.26228267 0.81560904 -0.3183658 -0.8079258
00000000: dfcd 983f 9049 91bf 3c20 ce3d 1e4e 9d3f
00000010: ea49 863e c1cb 503f d800 a3be 3ad4 4ebf

prescalers.EMBEDDED_WIND_GENERATION.bias f4 [8]
-0.38537022 -0.36500472 -0.094403066 -0.66932803 0.10501072 -0.90439445 0.12375103 -0.4334517
00000000: 3f4f c5be e6e1 babe 6556 c1bd 1559 2bbf
00000010: dc0f d73d 6586 67bf 2e71 fd3d 62ed ddbe

prescalers.EMBEDDED_SOLAR_GENERATION.weight f4 [8, 1]
-0.54595053 -0.60504943 -0.28750277 0.44407773 0.14408876 -1.0738909 -0.9534305 -0.29333913
00000000: 6ac3 0bbf 85e4 1abf 9033 93be 285e e33e
00000010: 018c 133e 4275 89bf 0514 74bf 8c30 96be

prescalers.EMBEDDED_SOLAR_GENERATION.bias f4 [8]
0.024350163 -0.4377383 0.6857634 -0.3549326 0.17101324 -0.7664834 -0.4294965 -0.49502844
00000000: fe79 c73c 3c1f e0be 318e 2f3f bab9 b5be
00000010: 181e 2f3e 4238 44bf f7e6 dbbe 5e74 fdbe

prescalers.IFA_FLOW.weight f4 [8, 1]
-0.44815397 0.016674027 -1.031122 1.1209776 0.5897459 -0.32960892 -0.40406483 0.22052974
00000000: 7074 e5be f897 883c cefb 83bf 327c 8f3f
00000010: 96f9 163f 80c2 a8be 96e1 cebe 8cd2 613e

prescalers.IFA_FLOW.bias f4 [8]
0.18837003 0.6521567 0.3373112 0.5182494 0.012622705 -0.105575934 0.691361 0.18044475
00000000: 13e4 403e bef3 263f 0eb4 ac3e feab 043f
00000010: 76cf 4e3c 3238 d8bd 09fd 303f 82c6 383e

static_variable_selection.flattened_grn.resample_norm.mask f4 [4]
0.009860688 -0.010255493 -0.033464164 0.07285929
00000000: b98e 213c a806 28bc b811 09bd 4037 953d

static_variable_selection.flattened_grn.resample_norm.norm.weight f4 [4]
1.017268 1.0009162 1.071666 1.1751993
00000000: d635 823f 061e 803f 5a2c 893f ee6c 963f

static_variable_selection.flattened_grn.resample_norm.norm.bias f4 [4]
0.028008398 0.011407029 -0.07530684 -0.18567511
00000000: de71 e53c 8ce4 3a3c 793a 9abd 9e21 3ebe

static_variable_selection.flattened_grn.fc1.weight f4 [4, 25]
-0.30226648 -0.035446446 -0.14403957 0.22725552 0.30452612 -0.29669452 0.39216918 -0.031111445
-0.25681305 -0.04366827 0.3506171 0.280034 -0.10271102 -0.10281581 0.60388005 0.053343184
0.36654797 0.1482637 -0.047233462 0.13484325 -0.13352457 -0.063081086 -0.004020362 0.109050706
-0.11884275 -0.06775248 -0.13397463 0.11735003 0.20173329 -0.026277248 0.3842766 0.44266403
0.12964709 -0.032758057 -0.033323936 -0.2072636 0.6435016 0.003086044 -0.73081195 0.13901415
0.5363908 0.7322263 0.18141283 -0.061084915 -0.09048472 0.13102525 0.48625195 0.30302486
0.12681863 0.31160015 -0.057642214 -0.54484576 0.119381785 -0.12960875 0.2536369 0.08845478
0.042157747 -0.030616019 -0.18268596 -0.09387625 0.24932487 0.1336712 -0.3271562 -0.14062122
-0.20157585 0.20967564 0.14563905 0.06817023 0.12751144 -0.038398765 0.13519552 -0.35112917
-0.17522179 -0.082555935 0.2575919 -0.25988656 0.26346844 -0.33692104 -0.37664175 -0.15763626
-0.19361126 0.18218313 -0.014808947 -0.005138836 -0.23930627 0.014755204 0.14633793 0.30989227
-0.083409905 -0.16341203 -0.31518504 0.021297455 -0.65597117 -0.35033816 0.17575225 -0.09474966
0.023866713 0.2391007 0.027370498 0.06987017
00000000: acc2 9abe 4b30 11bd 1c7f 13be acb5 683e
00000010: d9ea 9b3e 58e8 97be 66ca c83e 6edd febc
00000020: 007d 83be 80dd 32bd 1684 b33e 9e60 8f3e
00000030: 285a d2bd 1891 d2bd e297 1a3f 627e 5a3d
00000040: 2dac bb3e 70d2 173e e077 41bd 5914 0a3e
00000050: aaba 08be a830 81bd 3ebd 83bb fa55 df3d
00000060: d463 f3bd d0c1 8abd a530 09be 3655 f03d
00000070: 2c93 4e3e 6243 d7bc e7bf c43e dca4 e23e
00000080: 35c2 043e 502d 06bd ae7e 08bd e93c 54be
00000090: 85bc 243f 3a3f 4a3b 7e16 3bbf ba59 0e3e
000000a0: e850 093f 2f73 3b3f 49c4 393e 2d34 7abd
000000b0: 0e50 b9bd 7c2b 063e 04f6 f83e 1326 9b3e
000000c0: bedc 013e 0e8a 9f3e 3e1a 6cbd 037b 0bbf
000000d0: 707e f43d 28b8 04be b2dc 813e c827 b53d
000000e0: 9aad 2c3d 72ce fabc 0712 3bbe 3142 c0bd
000000f0: 054f 7f3e 1ae1 083e 0481 a7be 02ff 0fbe
00000100: e669 4ebe 36b5 563e 6722 153e d59c 8b3d
00000110: 5c92 023e 0648 1dbd b270 0a3e 34c7 b3be
00000120: 576d 33be 1613 a9bd 16e3 833e da0f 85be
00000130: 56e5 863e ea80 acbe 30d7 c0be 666b 21be
00000140: 0842 46be 378e 3a3e 3aa1 72bc ae63 a8bb
00000150: b40c 75be d0bf 713c 9cd9 153e 33aa 9e3e
00000160: d0d2 aabd 7c55 27be ef5f a1be 0078 ae3c
00000170: baed 27bf 865f b3be 66f8 333e 1c0c c2bd
00000180: 2084 c33c d0d6 743e 1838 e03c 1718 8f3d

static_variable_selection.flattened_grn.fc1.bias f4 [4]
-0.02956137 -0.0025944223 -0.013366444 0.01747519
00000000: b02a f2bc 2f07 2abb eefe 5abc 2128 8f3c

static_variable_selection.flattened_grn.fc2.weight f4 [4, 4]
0.25039285 0.060457557 -0.36193222 0.722937 0.4355214 0.34821063 -1.0367122 -0.9551264
-0.21822298 0.1761179 -1.1115155 -0.2660483 0.9078418 -0.23624831 -0.54505897 -0.24090326
00000000: 7e33 803e 58a2 773d 2e4f b9be 6612 393f
00000010: a9fc de3e aa48 b23e fcb2 84bf 2a83 74bf
00000020: d875 5fbe 4058 343e 2446 8ebf 7c37 88be
00000030: 5268 683f 14eb 71be fc88 0bbf 58af 76be

static_variable_selection.flattened_grn.fc2.bias f4 [4]
0.04293455 0.018715551 -0.09935163 -0.026866797
00000000: 24dc 2f3d 5b51 993c de78 cbbd c217 dcbc

static_variable_selection.flattened_grn.gate_norm.glu.fc.weight f4 [8, 4]
0.25498787 -0.3558921 -0.21947849 -0.41036135 -0.22746202 -0.63301915 0.04321242 0.23968339
-0.46372843 -0.5698076 0.48199975 -0.21477348 0.3585617 -0.07147696 0.47029594 -0.22287346
0.6055492 -0.61145914 -0.39598516 0.32874444 -0.4934771 0.6015855 -0.22761458 0.34457624
-0.53664494 8.0833895e-05 0.17743824 0.5663659 -0.0118639 0.2659604 0.6674011 0.39500427
00000000: c58d 823e 7d37 b6be f8be 60be e21a d2be
00000010: ceeb 68be 8b0d 22bf 82ff 303d 906f 753e
00000020: d06d edbe e9de 11bf acc8 f63e 94ed 5bbe
00000030: 6695 b73e 8362 92bd a1ca f03e f138 64be
00000040: 4605 1b3f 9688 1cbf 91be cabe 3151 a83e
00000050: 08a9 fcbe 8201 1a3f cc13 69be 4c6c b03e
00000060: 9061 09bf 5e85 a938 5fb2 353e 5bfd 103f
00000070: ce60 42bc f62b 883e ccda 2a3f 003e ca3e

static_variable_selection.flattened_grn.gate_norm.glu.fc.bias f4 [8]
0.01592202 -0.0033854225 -0.05836091 -0.16602209 -0.10946737 -0.08720267 -0.030618722 -0.026333597
00000000: e56e 823c f7dd 5dbb d90b 6fbd b201 2abe
00000010: 6e30 e0bd 5097 b2bd 1dd4 fabc 8eb9 d7bc

static_variable_selection.flattened_grn.gate_norm.add_norm.norm.weight f4 [4]
0.9914566 0.9840627 1.1016605 1.1162231
00000000: 1ad0 7d3f 88eb 7b3f 3603 8d3f 66e0 8e3f

static_variable_selection.flattened_grn.gate_norm.add_norm.norm.bias f4 [4]
0.027103037 0.021568213 -0.11466787 -0.13301648
00000000: 3007 de3c d2af b03c fdd6 eabd 7935 08be

static_variable_selection.single_variable_grns.group_id.mask f4 [16]
0.008689131 0.048738584 0.0030144341 -0.061072122 -0.02870404 -0.13185011 -0.07674634 -0.018722832
-0.0060897954 0.016041152 0.019240368 0.2560943 -0.032416604 -0.039686 -0.0067202915 -0.09437597
00000000: db5c 0e3c 1ca2 473d d08d 453b c326 7abd
00000010: bc24 ebbc b703 07be 2f2d 9dbd a060 99bc
00000020: e88c c7bb bc68 833c fa9d 9d3c cb1e 833e
00000030: 46c7 04bd ca8d 22bd e435 dcbb 3048 c1bd

static_variable_selection.single_variable_grns.group_id.norm.weight f4 [16]
0.891002 0.94463325 0.890874 0.9440737 0.9219028 1.1008167 1.0069358 0.8439146
0.7290844 0.9097831 0.87776804 1.27869 0.8863852 0.96245015 0.8356645 0.9995397
00000000: b518 643f 7cd3 713f 5210 643f d0ae 713f
00000010: d201 6c3f 90e7 8c3f 46e3 803f ca0a 583f
00000020: 46a5 3a3f 8ce7 683f 68b5 603f 1dac a33f
00000030: 24ea 623f 2263 763f 1cee 553f d5e1 7f3f

static_variable_selection.single_variable_grns.group_id.norm.bias f4 [16]
-0.0059563555 0.04133877 -0.029557731 -0.08190185 -0.021433745 -0.12657958 -0.065447435 -0.028329471
-0.012108115 -0.00013615005 0.029058883 0.25417086 -0.071600966 -0.02878183 -0.013234386 -0.15425879
00000000: 882d c3bb d852 293d 0e23 f2bc 28bc a7bd
00000010: d295 afbc 149e 01be 4e09 86bd 3513 e8bc
00000020: 1d61 46bc 80c3 0eb9 e50c ee3c af22 823e
00000030: 87a3 92bd dfc7 ebbc 0ad5 58bc 04f6 1dbe

static_variable_selection.single_variable_grns.encoder_length.resample_norm.mask f4 [16]
0.024596237 -0.09015366 0.4166573 0.07178888 0.10395078 -0.13374445 -0.062424734 -0.021484893
-0.013507508 -0.07692735 0.010018962 0.25120312 0.004659786 -0.07822099 -0.086074196 -0.14853927
00000000: 0c7e c93c 7ba2 b8bd 1b54 d53e 0c06 933d
00000010: 26e4 d43d 4ef4 08be 14b1 7fbd 1601 b0bc
00000020: 984e 5dbc 168c 9dbd 9326 243c b29d 803e
00000030: 1eb1 983b 5432 a0bd ab47 b0bd ae1a 18be

static_variable_selection.single_variable_grns.encoder_length.resample_norm.norm.weight f4 [16]
0.86597097 0.9453385 1.0451069 1.038275 1.2638376 0.9878376 0.9483789 0.9937341
1.0323296 0.96111774 1.0751057 1.2642212 1.0049832 0.94138145 0.9323219 0.874094
00000000: 46b0 5d3f b401 723f 10c6 853f 32e6 843f
00000010: 6ec5 a13f ede2 7c3f f6c8 723f 5c65 7e3f
00000020: 6023 843f d00b 763f 109d 893f 00d2 a13f
00000030: 4aa3 803f 60fe 703f a6ac 6e3f a0c4 5f3f

static_variable_selection.single_variable_grns.encoder_length.resample_norm.norm.bias f4 [16]
0.059459306 -0.013019329 0.11586031 -0.03338085 -0.050620817 -0.17215788 -0.0659129 -0.02573628
-0.014207655 0.053333975 -0.0100502875 0.25112176 -0.019559104 -0.059630882 -0.05474237 -0.12758975
00000000: 9a8b 733d 064f 55bc 2c48 ed3d 5cba 08bd
00000010: c657 4fbd 284a 30be 58fd 86bd e4d4 d2bc
00000020: 39c7 68bc ba74 5a3d f6a9 24bc 0893 803e
00000030: 6a3a a0bc 833f 74bd 8939 60bd e3a6 02be

static_variable_selection.single_variable_grns.encoder_length.fc1.weight f4 [8, 8]
0.26904574 0.759176 0.92403686 0.34206074 -0.09468356 -0.28959203 -0.10997641 0.9968524
-0.6277602 0.11228156 0.8336028 0.22885762 -0.18915284 0.36057392 0.3356187 -0.21658999
0.020470167 0.11842944 -0.53965 0.4635975 0.21540286 0.15148479 -0.27948117 -0.16726309
0.2667682 0.077534504 -0.2781148 0.058447197 0.3770374 -0.80629385 0.12174525 0.5521655
-0.11819206 -0.44868517 -0.10915665 0.16873798 0.85712826 0.7103244 0.27378908 0.595592
0.29605544 1.2665386 0.7733637 0.17568284 0.38992777 0.057991404 0.09064076 0.5556321
-0.00764347 -0.3933898 0.6626246 -1.1114149 -0.69763064 0.33034804 0.25626722 -0.43197125
-0.16468298 0.67986584 0.5418751 0.33628815 0.5088203 -0.39205667 0.77471435 0.5514173
00000000: 5dc0 893e 5c59 423f ae8d 6c3f 9622 af3e
00000010: 74e9 c1bd 6845 94be 503b e1bd b831 7f3f
00000020: e4b4 20bf e0f3 e53d fe66 553f a759 6a3e
00000030: 48b1 41be 259d b83e 37d6 ab3e c4c9 5dbe
00000040: 0db1 a73c 228b f23d 8126 0abf a75c ed3e
00000050: 9192 5c3e d41e 1b3e 2818 8fbe 0447 2bbe
00000060: d795 883e 69ca 9e3d 1065 8ebe 5466 6f3d
00000070: 0c0b c13e 4669 4ebf 9355 f93d b85a 0d3f
00000080: ae0e f2bd 10ba e5be 868d dfbd a6c9 2c3e
00000090: c26c 5b3f d2d7 353f 152e 8c3e b878 183f
000000a0: 9494 973e f01d a23f 2afb 453f 34e6 333e
000000b0: 9da4 c73e 6588 6d3d dda1 b93d e83d 0e3f
000000c0: 1376 fabb 636a c9be c4a1 293f d842 8ebf
000000d0: ec97 32bf 6123 a93e 7535 833e 562b ddbe
000000e0: a8a2 28be b00b 2e3f 54b8 0a3f f62d ac3e
000000f0: 0c42 023f a7bb c8be ae53 463f af29 0d3f

static_variable_selection.single_variable_grns.encoder_length.fc1.bias f4 [8]
-0.18246707 0.051152103 -0.0152416425 -0.013277333 -0.061707966 0.016958041 0.045982078 -0.014839338
00000000: a6d8 3abe de84 513d 15b8 79bc 2c89 59bc
00000010: 7ec1 7cbd 97eb 8a3c b457 3c3d b220 73bc

static_variable_selection.single_variable_grns.encoder_length.fc2.weight f4 [8, 8]
0.31891268 0.33705086 0.061398033 -0.23932418 -0.41701174 -0.37436283 -0.348078 0.035665944
0.38191548 -0.13494354 0.7826024 0.24573565 -0.3065188 0.14756307 -1.0705299 0.3006284
0.7605553 0.06942636 -0.17281544 0.21059844 0.44610965 0.04980065 0.09827034 -0.30215204
0.27640826 -0.5181635 0.25034896 -0.42873484 0.10858137 0.5458338 0.21548575 1.2016548
0.6341313 0.004915402 -0.1395699 -0.31318998 -0.37696618 -0.7309551 -0.17362389 -0.43860942
-0.38991034 0.7006 0.009640617 0.10415444 -0.022887103 0.45168853 0.004232361 -0.3006647
0.20363857 -0.23786274 0.3112046 0.43617666 0.07749886 -0.40973803 0.5842589 0.100477315
0.1824052 -0.3385406 0.22228667 -0.059885204 0.04998122 0.39727554 -0.3627282 0.40389702
00000000: 8648 a33e ee91 ac3e 817c 7b3d 6611 75be
00000010: 9082 d5be 7cac bfbe 4837 b2be 7416 123d
00000020: 6d8a c33e a42e 0abe a258 483f 20a2 7b3e
00000030: 08f0 9cbe c61a 173e 2007 89bf f7eb 993e
00000040: c1b3 423f 682f 8e3d 88f6 30be 1ea7 573e
00000050: 7c68 e43e c4fb 4b3d f641 c93d acb3 9abe
00000060: 6285 8d3e 5da6 04bf bd2d 803e 2283 dbbe
00000070: e95f de3d c4bb 0b3f 4ca8 5c3e d3cf 993f
00000080: 6e56 223f 6111 a13b 69eb 0ebe 705a a0be
00000090: b601 c1be e01f 3bbf 76ca 31be 6a91 e0be
000000a0: 54a2 c7be 865a 333f aef3 1d3c ec4e d53d
000000b0: bc7d bbbc b843 e73e 9eaf 8a3b b9f0 99be
000000c0: a186 503e 4a92 73be 3656 9f3e 8c52 df3e
000000d0: b9b7 9e3d 2fc9 d1be fe91 153f 0dc7 cd3d
000000e0: 6ec8 3a3e 3255 adbe 1e9f 633e 304a 75bd
000000f0: 1cb9 4c3d b367 cb3e 83b7 b9be 97cb ce3e

static_variable_selection.single_variable_grns.encoder_length.fc2.bias f4 [8]
0.027393453 -0.050701633 -0.090215534 0.030560572 -0.072869755 0.06936648 0.017436849 -0.13846669
00000000: 3c68 e03c 84ac 4fbd ecc2 b8bd 2a5a fa3c
00000010: bd3c 95bd 0310 8e3d b9d7 8e3c 36ca 0dbe

static_variable_selection.single_variable_grns.encoder_length.gate_norm.glu.fc.weight f4 [32, 8]
-0.34734523 0.5705155 0.14860934 -0.016322851 0.15634622 -0.08515231 -0.03519261 0.39592513
-0.063693255 -0.54529023 0.31338605 -0.11502892 0.3792277 -0.35563236 0.08053103 -0.3263759
-0.23900263 0.43198043 0.019426115 0.32023218 -0.19536448 0.043953106 -0.06972869 -0.17664734
0.0791211 0.006860467 0.09809163 -0.21946675 0.263183 0.19545141 -0.22031316 -0.12197173
-0.23895769 0.1630438 -0.11703083 0.038269605 0.18281546 0.3172778 0.322303 -0.22394666
-0.07868141 -0.3453498 0.18700175 -0.28779733 0.10627796 0.39363903 -0.1493164 0.007954102
0.24656335 0.081056125 -0.0504992 0.046965174 0.17676382 0.09884378 0.07010529 0.265274
-0.10652216 0.21129876 -0.14617664 0.16306311 0.1711103 -0.00362813 0.12641965 0.11734055
-0.16765335 -0.23721209 0.14150223 -0.33174318 0.20317486 -0.20431024 -0.060970172 -0.11542753
-0.2521397 0.09229614 0.24305335 0.13764827 -0.37195522 -0.02519208 0.2524575 -0.14493427
0.087150335 -0.55104405 -0.3798028 0.07588874 0.24740589 -0.18181352 0.22305036 -0.34660906
0.24959807 0.010739928 0.3040846 0.40580422 0.21524975 0.07139197 -0.087938115 0.049521774
0.18933219 0.2318443 0.25225478 0.23244774 0.18896559 -0.07833271 -0.2680805 0.38379896
0.15435609 0.28110597 0.034764938 0.1474563 0.07419325 -0.20657724 0.2195575 0.0797133
0.14347205 -0.32495403 -0.2860551 0.04888257 -0.021780945 0.23257059 -0.28861582 0.33540827
-0.017241225 -0.160326 -0.42886856 0.08433406 0.13808265 -0.06116275 -0.22771505 -0.35805458
0.27025023 -0.05134875 -0.0092096925 -0.38591725 -0.0747425 -0.22263373 0.3386085 -0.16316801
-0.23700179 -0.2847237 -0.16034782 0.20590545 -0.06814817 0.121725716 0.17967615 0.01901969
0.075204924 -0.17554578 -0.32880533 0.20334464 -0.3076841 0.27538592 -0.004399806 -0.3885877
0.27099138 0.3625905 -0.002471022 0.005357817 0.29385078 0.34434932 -0.20671687 -0.3240438
0.11511269 0.31602368 -0.004649035 0.25402313 -0.18362218 -0.1001858 -0.20750967 -0.15022956
0.15245435 -0.07268357 0.18465719 -0.108677864 -0.17903614 0.095572695 -0.32987043 0.34178954
-0.12815285 -0.33450955 0.24065344 -0.27512267 0.16248885 -0.18461171 -0.24643326 0.06784344
-0.21643418 -0.1570743 -0.16671042 0.08734417 -0.21729743 -0.2644134 -0.34832186 0.22746795
0.024141258 0.053145353 0.09048618 -0.071321994 0.14747518 0.052283682 -0.308769 0.10076071
0.16303757 -0.26011866 -0.028628599 -0.24421993 -0.07758668 -0.040006246 0.14057511 0.15397942
0.13347666 -0.045871712 -0.058921717 0.24696134 -0.13073151 -0.013302922 0.051758416 -0.29019982
0.3399036 -0.24297193 0.340142 0.18485767 -0.35496545 0.25469697 -0.3036552 0.16926765
0.33010408 0.26671845 0.02627641 0.086137295 -0.03477055 -0.31617162 0.27591932 0.10112895
-0.20405309 -0.21878257 0.25659093 0.21666616 0.025991699 0.041778296 0.07693049 0.16768163
-0.10956147 0.36693144 -0.12676372 -0.072671354 0.046668246 0.18034838 0.21648574 0.24779093
0.32933417 -0.3856306 0.16006511 -0.15709062 0.3697101 -0.030920051 0.047385477 -0.08633226
00000000: 3cd7 b1be 4e0d 123f 0c2d 183e 80b7 85bc
00000010: 3919 203e 5664 aebd 2026 10bd b3b6 ca3e
00000020: 9c71 82bd 2498 0bbf 2374 a03e 4894 ebbd
00000030: 222a c23e 7215 b6be 74ed a43d be1a a7be
00000040: 1bbd 74be 8a2c dd3e 8423 9f3c 79f5 a33e
00000050: a00d 48be 2c08 343d eacd 8ebd 0ae3 34be
00000060: 3e0a a23d c5cd e03b 44e4 c83d e4bb 60be
00000070: ecbf 863e 6a24 483e c699 61be 50cc f9bd
00000080: 53b1 74be f4f4 263e dcad efbd 97c0 1c3d
00000090: fa33 3b3e 3c72 a23e e604 a53e 4652 65be
000000a0: b823 a1bd b0d1 b0be 637d 3f3e 2c5a 93be
000000b0: 42a8 d93d 0e8b c93e 66e6 18be ec51 023c
000000c0: 1a7b 7c3e c100 a63d 40d8 4ebd 8e5e 403d
000000d0: 9301 353e 9c6e ca3d 5d93 8f3d fed1 873e
000000e0: 4a28 dabd b45e 583e 54af 15be 04fa 263e
000000f0: 8a37 2f3e ecc5 6dbb 2774 013e 3e50 f03d
00000100: 52ad 2bbe bae7 72be f6e5 103e 3eda a9be
00000110: 120d 503e b436 51be dcbb 79bd 4565 ecbd
00000120: 7418 81be c205 bd3d fae2 783e abf3 0c3e
00000130: ea70 bebe 9f5f cebc 1c42 813e a669 14be
00000140: e07b b23d 3911 0dbf 8375 c2be 8e6b 9b3d
00000150: f857 7d3e 532d 3abe 5067 643e be76 b1be
00000160: a396 7f3e 86f6 2f3c fab0 9b3e 92c5 cf3e
00000170: 6e6a 5c3e f435 923d e618 b4bd 58d7 4a3d
00000180: 4ce0 413e 9868 6d3e 8a27 813e c806 6e3e
00000190: 3280 413e e66c a0bd d941 89be 4c81 c43e
000001a0: 860f 1e3e 1fed 8f3e ae65 0e3d c9fe 163e
000001b0: a1f2 973d fc88 53be aed3 603e ba40 a33d
000001c0: 56ea 123e 6060 a6be d075 92be 1739 483d
000001d0: f46d b2bc fc26 6e3e 74c5 93be a2ba ab3e
000001e0: 783d 8dbc 802c 24be a994 dbbe 56b7 ac3d
000001f0: 8a65 0d3e cb85 7abd 222e 69be ee52 b7be
00000200: 3d5e 8a3e 1153 52bd 40e4 16bc f296 c5be
00000210: 9912 99bd 19fa 63be 185e ad3e 8415 27be
00000220: 99b0 72be 4ec7 91be 3832 24be e1d8 523e
00000230: 4591 8bbd 554b f93d 06fd 373e 2ecf 9b3c
00000240: 0a05 9a3d 46c2 33be 2c59 a8be 9439 503e
00000250: c588 9dbe 62ff 8c3e 3f2c 90bb f8f4 c6be
00000260: 62bf 8a3e 76a5 b93e dff0 21bb a090 af3b
00000270: 9c73 963e 8e4e b03e 96ad 53be 12e9 a5be
00000280: 34c0 eb3d dbcd a13e ef56 98bb 520f 823e
00000290: 7407 3cbe 362e cdbd 6a7d 54be c7d5 19be
000002a0: fe1c 1c3e 20db 94bd c616 3d3e 8092 debd
000002b0: 4055 37be 9ebb c33d c7e4 a8be 0aff ae3e
000002c0: 803a 03be d644 abbe db6d 763e e1dc 8cbe
000002d0: 7a63 263e da0a 3dbe 0059 7cbe 80f1 8a3d
000002e0: eca0 5dbe 16d8 20be 23b6 2abe 80e1 b23d
000002f0: 3883 5ebe 3161 87be 3e57 b2be 5ced 683e
00000300: e3c3 c53c f1ae 593d d150 b93d 4411 92bd
00000310: bc03 173e 6a27 563d f816 9ebe a25b ce3d
00000320: 52f3 263e 462e 85be 8686 eabc ca14 7abe
00000330: c4e5 9ebd 97dd 23bd ecf2 0f3e c8ac 1d3e
00000340: 1bae 083e fae3 3bbd e657 71bd 6fe3 7c3e
00000350: 7bde 05be 80f4 59bc a200 543d 1295 94be
00000360: d807 ae3e a2cd 78be 1827 ae3e 544b 3d3e
00000370: 08be b5be a467 823e b278 9bbe 8054 2d3e
00000380: 6703 a93e 528f 883e a041 d73c c068 b03d
00000390: 906b 0ebd 3fe1 a1be 4c45 8d3e b21c cf3d
000003a0: 4bf3 50be 8a08 60be e35f 833e bcdd 5d3e
000003b0: 8bec d43c b81f 2b3d bc8d 9d3d bcb4 2b3e
000003c0: c461 e0bd 70de bb3e 59ce 01be b8d4 94bd
000003d0: 3427 3f3d 3fad 383e 70ae 5d3e e8bc 7d3e
000003e0: 7d9e a83e 6071 c5be 1ce8 233e 5ddc 20be
000003f0: a44a bd3e 0c4c fdbc 4617 423d f8ce b0bd

static_variable_selection.single_variable_grns.encoder_length.gate_norm.glu.fc.bias f4 [32]
0.04853503 -0.029266935 0.09452297 -0.032230753 -0.038785577 -0.16033676 -0.07425879 -0.013527842
-0.0012343941 0.056229047 -0.01815949 0.2217367 0.0035110335 -0.05783765 -0.039403282 -0.079946615
0.043844342 0.016187215 0.018119765 -0.06509137 -0.04119144 -0.040945813 -0.060496815 0.0040380936
-0.0037068035 -0.032858685 0.019437794 0.11752346 0.01891993 -0.020461734 -0.034863673 0.012633629
00000000: abcc 463d 36c1 efbc 4295 c13d 6504 04bd
00000010: a0dd 1ebd 522f 24be fe14 98bd e2a3 5dbc
00000020: 65cb a1ba 6e50 663d 36c3 94bc f20e 633e
00000030: 5e19 663b 2ce7 6cbd 5665 21bd 0dbb a3bd
00000040: 2096 333d 0d9b 843c e76f 943c a04e 85bd
00000050: 5bb8 28bd ccb6 27bd 82cb 77bd fc51 843b
00000060: d8ed 72bb d496 06bd 023c 9f3c 24b0 f03d
00000070: f8fd 9a3c 5e9f a7bc 36cd 0ebd 48fd 4e3c

static_variable_selection.single_variable_grns.encoder_length.gate_norm.add_norm.norm.weight f4 [16]
0.9727936 0.8861207 1.0658615 1.0182077 1.113549 0.9698838 0.9171427 0.9723159
1.0310571 0.96212435 1.0517449 1.3187742 1.0171708 0.95006317 0.8610283 0.7940389
00000000: 0009 793f ced8 623f 266e 883f a154 823f
00000010: c688 8e3f 4e4a 783f ddc9 6a3f b2e9 783f
00000020: aef9 833f c84d 763f 949f 863f 98cd a83f
00000030: a732 823f 5737 733f 5a6c 5c3f 2246 4b3f

static_variable_selection.single_variable_grns.encoder_length.gate_norm.add_norm.norm.bias f4 [16]
0.0557701 -0.0073361797 0.0852413 -0.04665874 -0.06620282 -0.17127603 -0.058761343 -0.015793607
-0.034998033 0.020228695 -0.026024556 0.27778587 0.0006433246 -0.0379863 -0.03478592 -0.1456269
00000000: 306f 643d 5664 f0bb fe92 ae3d 3c1d 3fbd
00000010: 5895 87bd fc62 2fbe bcaf 70bd 9861 81bc
00000020: 195a 0fbd a6b6 a53c 7331 d5bc f339 8e3e
00000030: c8a4 283a 8697 1bbd ae7b 0ebd 381f 15be

static_variable_selection.single_variable_grns.ND_center.resample_norm.mask f4 [16]
0.004768762 -0.0014354188 -0.022057693 0.013531282 -0.005288017 -0.016580243 -0.0034039682 0.0017740143
-0.0059497384 0.019721204 -0.005080013 -0.08221423 -0.008391748 0.0075864745 0.0008964943 0.0865485
00000000: 4643 9c3b aa24 bcba 56b2 b4bc 4fb2 5d3c
00000010: 1a47 adbb 4ad3 87bc 1c15 5fbb 0b86 e83a
00000020: 06f6 c2bb 5d8e a13c 3d76 a6bb ef5f a8bd
00000030: 8b7d 09bc f697 f83b b702 6b3a 5740 b13d

static_variable_selection.single_variable_grns.ND_center.resample_norm.norm.weight f4 [16]
1.0099125 0.99790657 0.9713868 1.0232171 0.98884046 0.9665694 0.9937273 1.0041875
0.99378955 1.0305438 0.9926501 0.8753239 0.98609626 1.00982 1.0010898 1.1205835
00000000: d044 813f ce76 7f3f ceac 783f c7f8 823f
00000010: a624 7d3f 1871 773f ea64 7e3f 3789 803f
00000020: fe68 7e3f dce8 833f 511e 7e3f 3a15 603f
00000030: ce70 7c3f c841 813f b623 803f 486f 8f3f

static_variable_selection.single_variable_grns.ND_center.resample_norm.norm.bias f4 [16]
0.024562106 0.0015251538 0.02101635 -0.027460076 -0.010797061 -0.06986374 -0.005849819 0.0076007233
-0.004638355 0.028441291 0.007203538 0.12841201 -0.013419297 0.009957889 -0.014802726 -0.08627201
00000000: 7836 c93c abe7 c73a 7b2a ac3c f4f3 e0bc
00000010: 28e6 30bc b814 8fbd d7af bfbb 7d0f f93b
00000020: 58fd 97bb b6fd e83c a80b ec3b 707e 033e
00000030: 9cdc 5bbc 6a26 233c 2287 72bc 61af b0bd

static_variable_selection.single_variable_grns.ND_center.fc1.weight f4 [8, 8]
-0.40738517 0.950233 -0.20241871 1.1371187 -0.7060143 0.33697164 -0.17962778 0.3437811
-0.43922752 -0.33440492 -0.10677408 -0.28958544 -0.19895332 -0.21185504 0.31647643 0.22745037
0.58769226 0.042809304 -0.050417356 0.23490298 -0.336561 -0.50733644 0.2854045 0.27500293
0.15193684 0.72082144 -0.0776829 -0.55078197 -0.56375945 0.2901255 0.35022032 0.056518644
-0.44757414 0.746441 0.15039638 0.5221474 0.29523018 -0.69995034 0.013279194 0.6928037
0.056501724 0.2975465 0.64708114 0.16790217 -0.09114745 -0.6842754 0.06423159 0.10585959
-0.14125171 -0.2653774 0.50967455 -0.4803551 -0.04532922 1.1033261 -0.84804475 0.40447712
0.50324154 0.3965931 0.23161185 0.20904185 0.6720851 -0.10838932 0.033162437 0.07942036
00000000: ca94 d0be 7842 733f da46 4fbe 1b8d 913f
00000010: 5abd 34bf 8c87 ac3e 58f0 37be 1404 b03e
00000020: 6ee2 e0be 1f37 abbe 5eac dabd 8b44 94be
00000030: 6bba 4bbe 87f0 58be 3309 a23e c0e8 683e
00000040: 0073 163f cf58 2f3d 6e82 4ebd 688a 703e
00000050: b951 acbe cde0 01bf 8a20 923e 2fcd 8c3e
00000060: 5595 1b3e c187 383f 3618 9fbd 0c00 0dbf
00000070: 8a52 10bf 548b 943e 1450 b33e 1880 673d
00000080: 7028 e5be c216 3f3f 8201 1a3e 74ab 053f
00000090: 6928 973e f22f 33bf fa90 593c 955b 313f
000000a0: 5a6e 673d 0458 983e 1ca7 253f 8cee 2b3e
000000b0: 84ab babd ac2c 2fbf da8b 833d eacc d83d
000000c0: 4aa4 10be 8cdf 87be 087a 023f 1bf1 f5be
000000d0: 22ab 39bd ca39 8d3f 7619 59bf a017 cf3e
000000e0: 70d4 003f 400e cb3e a82b 6d3e 110f 563e
000000f0: c50d 2c3f 38fb ddbd 56d5 073d 24a7 a23d

static_variable_selection.single_variable_grns.ND_center.fc1.bias f4 [8]
-0.007139365 0.0056146416 0.018192815 -0.011955457 0.01136691 -0.0051428005 0.016773732 0.040663324
00000000: 56f1 e9bb 07fb b73b 1909 953c d2e0 43bc
00000010: 473c 3a3c f084 a8bb 1169 893c 968e 263d

static_variable_selection.single_variable_grns.ND_center.fc2.weight f4 [8, 8]
-0.24908406 -0.12538096 0.21789469 -0.038792826 0.26473022 0.38949603 0.5128209 0.3051764
-0.35618126 -0.29058096 -0.07391772 -0.5506176 -0.41164 -0.56899196 0.23060146 0.45064384
0.64470124 -0.37502962 0.72031087 0.11783433 0.21641034 -1.0220358 0.4232827 -0.5258037
0.11612946 0.5733999 0.5147135 0.19886594 -0.10589796 -0.34946376 1.0456243 -0.09229866
0.2182821 -0.05276309 -0.51054746 0.8969393 -0.95181286 0.3107777 -0.6075636 -0.8773483
-0.4789276 -0.104342915 -0.35502195 0.058726072 0.107580006 0.334925 0.05611659 0.45757926
0.313137 0.66726875 -1.2073847 -0.3393706 0.25484914 -0.034267567 -0.80653906 0.1639438
-0.4868996 0.3349563 -0.08164731 -0.916487 0.615373 0.3994759 0.24705303 -0.7303941
00000000: e40f 7fbe de63 00be c91f 5f3e 3ae5 1ebd
00000010: b88a 873e 066c c73e 3b48 033f 1540 9c3e
00000020: 645d b6be 07c7 94be 2c62 97bd 46f5 0cbf
00000030: 7ac2 d2be 75a9 11bf ca22 6c3e caba e63e
00000040: 240b 253f e203 c0be 4b66 383f 2053 f13d
00000050: ac9a 5d3e 12d2 82bf 83b8 d83e 129b 06bf
00000060: 48d5 ed3d 56ca 123f 44c4 033f 83a3 4b3e
00000070: 08e1 d8bd eaec b2be 04d7 853f 1407 bdbd
00000080: 5885 5f3e 1c1e 58bd 3db3 02bf d09d 653f
00000090: 02aa 73bf 411e 9f3e 4a89 1bbf e699 60bf
000000a0: 0036 f5be bdb1 d5bd 70c5 b5be c08a 703d
000000b0: e852 dc3d 4a7b ab3e 82da 653d d447 ea3e
000000c0: 7e53 a03e 20d2 2a3f 958b 9abf fcc1 adbe
000000d0: 967b 823e 265c 0cbd 5879 4ebf e2e0 273e
000000e0: e84a f9be 647f ab3e b436 a7bd e49e 6abf
000000f0: 1689 1d3f 1b88 cc3e 78fb 7c3e 1cfb 3abf

static_variable_selection.single_variable_grns.ND_center.fc2.bias f4 [8]
-0.015355859 0.020304209 -0.011542594 0.03956233 -0.029233467 0.051564947 -0.019603543 0.011027221
00000000: 2497 7bbc 0355 a63c 261d 3dbc 1c0c 223d
00000010: 067b efbc c435 533d 9c97 a0bc 84ab 343c

static_variable_selection.single_variable_grns.ND_center.gate_norm.glu.fc.weight f4 [32, 8]
-0.18058974 0.2713776 0.13213962 0.21969622 -0.26274025 -0.30131948 -0.31907994 -0.32900918
0.32646668 -0.061834354 -0.15218577 -0.13781525 -0.03805867 0.2525269 -0.0023465694 -0.104577705
-0.032762315 -0.190095 -0.052345898 -0.20468302 0.27319473 0.336528 -0.06070211 0.21584818
-0.13286558 0.117844254 -0.012470782 0.04215494 -0.027275514 -0.089280136 -0.2894318 -0.29001158
-0.26290447 -0.20218392 -0.12544498 -0.0748336 -0.14207879 -0.28679785 -0.11252406 0.020308934
0.095886946 -0.13375074 0.31324977 0.08243264 -0.27838773 -0.25434697 0.3233834 0.06964725
0.13016397 -0.3780976 0.09037872 -0.36477396 -0.30857408 -0.3770944 0.2519223 0.38296854
-0.3534924 0.21552125 -0.3708532 -0.019531772 -0.38248074 0.2650835 -0.17134991 -0.25886184
-0.2671574 -0.23509303 -0.278438 -0.24304643 0.18462649 -0.19958946 0.1446673 -0.16042365
0.25586873 0.12158595 0.22635904 -0.029799033 -0.00929913 -0.03606997 0.31093794 0.08979992
0.00821974 -0.02213588 -0.0009911268 0.08188617 -0.2098848 0.104222365 -0.1782784 0.22417471
0.2959687 -0.1455481 -0.44291383 0.19768038 -0.2414558 0.2840567 0.13242644 0.2676487
0.32512903 -0.18688166 -0.08247763 -0.08804323 0.18809232 -0.0750691 0.10595763 0.26988652
-0.18036151 -0.05029 0.3656929 0.22336337 -0.21428059 0.111525886 -0.15356386 0.15158689
0.3116693 -0.17373069 -0.12903103 -0.018645506 -0.1763072 -0.32959267 0.24077739 -0.24496178
0.3686001 -0.4175623 0.3977189 0.09583174 0.20602812 -0.37664914 0.10284016 0.13372938
-0.017620292 0.10892342 0.27591974 -0.011962742 -0.045988213 -0.23071848 -0.28236425 -0.10241388
-0.10643596 0.2957074 0.3770123 -0.32421023 -0.22820094 0.07442145 0.25744247 -0.239796
-0.030476002 -0.28819543 0.36364356 0.36683303 -0.1916767 0.2836938 0.041491702 0.13764408
0.08432937 -0.16640936 -0.15590286 0.10104598 0.05472105 -0.28544033 -0.0007055328 0.13268106
0.08147621 -0.28973043 -0.08375529 0.35692558 0.18127051 -0.12629524 -0.046301544 -0.20759214
0.3011263 0.3120876 0.121180505 0.23164546 -0.03373509 -0.017838504 0.103403844 0.24038507
0.32174724 -0.22235881 0.032134254 -0.3186031 -0.2580117 0.21199603 0.16361344 0.3199278
0.12727267 -0.001702632 0.30834198 -0.36300296 0.37360144 -0.14486653 0.2871008 0.087819666
0.30497414 0.2923904 0.1906859 -0.09982273 -0.18276742 -0.102865815 0.2348976 0.016687691
0.13629207 -0.06402627 -0.15837088 -0.23440117 0.25240612 -0.006869998 -0.034131974 0.037021264
-0.33393747 0.22810107 0.08115085 0.37034917 -0.23322952 0.27305588 0.26375082 -0.2072261
-0.28573853 0.19400144 0.20865926 0.314929 0.11390616 0.025755856 -0.33824307 0.2216435
-0.2675131 -0.310607 -0.06402074 -0.26421738 -0.15139928 -0.11147033 0.22242469 0.025293943
0.27342734 -0.04695248 0.22443084 0.035246313 0.2087879 0.17335558 0.29737324 0.35488644
0.20136166 -0.1674614 -0.19711244 -0.056226976 -0.2058527 -0.30429146 -0.034449518 0.010711007
-0.11438503 0.06709532 0.18823838 -0.073775195 -0.32276392 -0.20394757 0.15251389 -0.011662897
00000000: 84ec 38be 01f2 8a3e 9c4f 073e 0cf8 603e
00000010: e485 86be 8c46 9abe 725e a3be e473 a8be
00000020: a426 a73e 0546 7dbd 96d6 1bbe 711f 0dbe
00000030: 68e3 1bbd 354b 813e e7c8 19bb d62c d6bd
00000040: c731 06bd 44a8 42be a768 56bd 6d98 51be
00000050: 2ee0 8b3e 664d ac3e c7a2 78bd 4e07 5d3e
00000060: ea0d 08be 5458 f13d 4052 4cbc a9aa 2c3d
00000070: e670 dfbc 81d8 b6bd 6830 94be 667c 94be
00000080: 6a9b 86be 4d09 4fbe a674 00be 5c42 99bd
00000090: 1a7d 11be 2bd7 92be 0473 e6bd ec5e a63c
000000a0: 6060 c43d f4f5 08be 4662 a03e 72d2 a83d
000000b0: d688 8ebe c439 82be 8292 a53e 38a3 8e3d
000000c0: b449 053e 0296 c1be 7a18 b93d a7c3 babe
000000d0: 6cfd 9dbe 8412 c1be f6fb 803e 7414 c43e
000000e0: f5fc b4be 9ab1 5c3e 78e0 bdbe 1801 a0bc
000000f0: 84d4 c3be 06b9 873e 5a76 2fbe 8a89 84be
00000100: dbc8 88be 3abc 70be 6d8f 8ebe 2ae1 78be
00000110: ba0e 3d3e 2e61 4cbe aa23 143e 1946 24be
00000120: 3a01 833e 0e02 f93d aaca 673e 1a1d f4bc
00000130: 615b 18bc 1bbe 13bd 4233 9f3e 05e9 b73d
00000140: 17ac 063c 4e56 b5bc b2e8 81ba f0b3 a73d
00000150: 0aec 56be 8972 d53d 9d8e 36be 0e8e 653e
00000160: 3689 973e 900a 15be 9ac5 e2be ba6c 4a3e
00000170: 3040 77be e16f 913e cc9a 073e 4009 893e
00000180: 5077 a63e e85d 3fbe 08ea a8bd 0250 b4bd
00000190: 469b 403e d4bd 99bd 5000 d93d 912e 8a3e
000001a0: b0b0 38be e3fc 4dbd 1a3c bb3e 5eb9 643e
000001b0: 5f6c 5bbe af67 e43d d83f 1dbe 9839 1b3e
000001c0: 1e93 9f3e 75e6 31be b620 04be 76be 98bc
000001d0: e089 34be 5fc0 a8be 598e 763e 43d7 7abe
000001e0: 27b9 bc3e baca d5be d0a1 cb3e 6e43 c43d
000001f0: 09f9 523e 28d8 c0be dd9d d23d 5bf0 083e
00000200: 6e58 90bc 3e13 df3d 5a45 8d3e 60ff 43bc
00000210: 235e 3cbd 7741 6cbe 0c92 90be 5ebe d1bd
00000220: 19fb d9bd f666 973e c207 c13e e2fe a5be
00000230: 82ad 69be 466a 983d 80cf 833e 158d 75be
00000240: cfa8 f9bc 5a8e 93be 7d2f ba3e 8ad1 bb3e
00000250: e646 44be 5040 913e 34f3 293d 92f2 0c3e
00000260: e0b4 ac3d 3767 2abe 00a5 1fbe 32f1 ce3d
00000270: 2e23 603d 3c25 92be 81f3 38ba 8bdd 073e
00000280: 00dd a63d 8c57 94be e587 abbd f3be b63e
00000290: fa9e 393e 8a53 01be b0a6 3dbd 0993 54be
000002a0: 3a2d 9a3e f2c9 9f3e 7c2d f83d 7834 6d3e
000002b0: ce2d 0abd 0e22 92bc 65c5 d33d 8127 763e
000002c0: 0ebc a43e 07b2 63be 359f 033d f21f a3be
000002d0: 1c1a 84be 7d15 593e 488a 273e 94cd a33e
000002e0: c453 023e da2a dfba 00df 9d3e 86db b9be
000002f0: b048 bf3e e457 14be e0fe 923e ccda b33d
00000300: 9225 9c3e 32b4 953e 2a43 433e dc6f ccbd
00000310: 6227 3bbe 50ab d2bd ff88 703e a0b4 883c
00000320: 2690 0b3e 3420 83bd fa2b 22be dc06 70be
00000330: 603b 813e b81d e1bb f8cd 0bbd 9ca3 173d
00000340: daf9 aabe 5493 693e 6b32 a63d 689e bd3e
00000350: b8d3 6ebe fbcd 8b3e 590a 873e 1433 54be
00000360: 524c 92be 50a8 463e c6aa 553e 603e a13e
00000370: a247 e93d f2fd d23c 322e adbe 83f6 623e
00000380: 7af7 88be e107 9fbe 4e1d 83bd 8047 87be
00000390: 6a08 1bbe 8e4a e4bd 4cc3 633e 3e35 cf3c
000003a0: abfe 8b3e 3e51 40bd 33d1 653e 705e 103d
000003b0: 7fcc 553e 2084 313e 4e41 983e adb3 b53e
000003c0: c031 4e3e 007b 2bbe d8d7 49be 424e 66bd
000003d0: 0dcb 52be 17cc 9bbe f01a 0dbd 387d 2f3c
000003e0: b342 eabd 4569 893d 90c1 403e 7317 97bd
000003f0: 5041 a5be a2d7 50be 9a2c 1c3e bc15 3fbc

static_variable_selection.single_variable_grns.ND_center.gate_norm.glu.fc.bias f4 [32]
0.005926295 -0.0022355516 0.009161605 -0.013788449 -0.004368091 -0.037605345 -0.0033685071 0.0025895382
-0.0041793636 0.020633858 0.0019797084 0.06877678 -0.008998602 0.012023998 -0.012908179 -0.045540035
-0.014122054 -0.002317811 -0.0017465373 0.00017944156 0.0011811929 0.008980217 -0.0047804243 0.0035981722
-0.016009219 -0.0031117774 -0.0036349902 0.022530105 -0.0038389997 -0.0015392498 -0.0075429534 0.036483902
00000000: 5e31 c23b 5582 12bb 8e1a 163c f2e8 61bc
00000010: 3422 8fbb 1008 1abd 2cc2 5cbb 3eb5 293b
00000020: 0bf3 88bb 5608 a93c ffbd 013b d7da 8c3d
00000030: df6e 13bc 4e00 453c d47c 53bc 3088 3abd
00000040: 3060 67bc 6ae6 17bb 11ec e4ba 7a28 3c39
00000050: 42d2 9a3a c321 133c 1ba5 9cbb 50cf 6b3b
00000060: c425 83bc f6ee 4bbb 0439 6ebb 0e91 b83c
00000070: ba97 7bbb a7c0 c9ba e12a f7bb 2570 153d

static_variable_selection.single_variable_grns.ND_center.gate_norm.add_norm.norm.weight f4 [16]
0.98625 0.98725516 0.9576674 1.0145177 0.9847709 0.98052657 0.976454 0.9835532
0.9517767 1.0109029 0.9838647 0.89605725 0.97069377 0.9910596 0.9861679 1.1124305
00000000: e17a 7c3f c1bc 7c3f b129 753f b7db 813f
00000010: f219 7c3f ca03 7b3f e4f8 793f 24ca 7b3f
00000020: a3a7 733f 4465 813f 8fde 7b3f 0264 653f
00000030: 637f 783f 15b6 7d3f 8075 7c3f 1f64 8e3f

static_variable_selection.single_variable_grns.ND_center.gate_norm.add_norm.norm.bias f4 [16]
0.017387047 -0.0022751852 0.029795978 -0.022220928 -0.017187517 -0.075099126 -0.017439745 -0.013253141
-0.027386554 0.011378819 0.0048161815 0.1396352 -0.022980843 -0.009659883 -0.02080829 -0.071359724
00000000: 486f 8e3c 461b 15bb b216 f43c aa08 b6bc
00000010: d6cc 8cbc 92cd 99bd ccdd 8ebc b423 59bc
00000020: c459 e0bc 3a6e 3a3c 0fd1 9d3b 88fc 0e3e
00000030: 5242 bcbc 7c44 1ebc 2676 aabc 0c25 92bd

static_variable_selection.single_variable_grns.ND_scale.resample_norm.mask f4 [16]
0.0030836246 0.003424269 0.017886471 -0.025310654 -0.0007872329 -0.042664483 -0.008659927 0.018555753
-0.00037202914 -0.0026216814 -0.00067884865 -0.03890971 -0.00033533334 -0.0022745263 0.0045775673 0.07609145
00000000: a316 4a3b b369 603b a686 923c 4a58 cfbc
00000010: 4e5e 4eba f4c0 2ebd 5ee2 0dbc 3c02 983c
00000020: e80c c3b9 84d0 2bbb c3f4 31ba ca5f 1fbd
00000030: aecf afb9 3810 15bb 6bff 953b d6d5 9b3d

static_variable_selection.single_variable_grns.ND_scale.resample_norm.norm.weight f4 [16]
1.0121996 0.99498713 1.0273005 0.9727691 0.9999434 0.94757044 0.9946859 1.0274196
0.9931958 1.0001794 1.0042036 0.8936206 1.011957 1.0033696 1.0154897 1.1372144
00000000: c28f 813f 7ab7 7e3f 957e 833f 6507 793f
00000010: 4afc 7f3f fa93 723f bca3 7e3f 7c82 833f
00000020: 1442 7e3f e105 803f be89 803f 52c4 643f
00000030: cf87 813f 6a6e 803f 91fb 813f 3e90 913f

static_variable_selection.single_variable_grns.ND_scale.resample_norm.norm.bias f4 [16]
-0.012577766 0.019226547 0.026177973 -0.023883712 0.004850549 -0.049961843 -0.0024285968 0.028382763
0.0034369905 -0.0025300658 -0.0064758873 0.1335563 -0.022300027 -0.016860565 -0.016018635 -0.09801172
00000000: f912 4ebc fe80 9d3c 3073 d63c c6a7 c3bc
00000010: 5bf1 9e3b caa4 4cbd 1829 1fbb f882 e83c
00000020: 223f 613b 76cf 25bb ae33 d4bb fcc2 083e
00000030: 8cae b6bc 2b1f 8abc 8339 83bc 5eba c8bd

static_variable_selection.single_variable_grns.ND_scale.fc1.weight f4 [8, 8]
0.54688615 -0.06346694 0.13229394 0.17317915 -0.26578647 -0.3615271 0.616774 0.28756934
0.121265054 1.0870593 -0.33863717 -0.88281226 -0.43441817 -0.18120673 0.37577522 0.70964044
0.17462817 -0.3329371 0.41162273 -0.25209576 0.33077902 0.26349014 -0.19050571 -0.50411
0.6682522 -0.5207453 0.025288869 0.9431954 0.24413139 -0.68495154 -0.24438342 0.44252735
-0.8896097 -0.64871764 0.16212311 -0.42722026 0.29184633 0.7565795 0.1705153 -0.25749463
0.27382085 0.1918571 0.36117816 0.61069727 -0.08596777 1.4346341 -0.4377452 -0.54299974
0.07180242 0.25974494 -0.5311594 0.032937467 0.14632794 0.28759605 -0.49622184 0.38629806
0.122955605 -0.4788085 -0.67449653 0.532305 0.28880042 -0.046541937 0.060393866 0.036647245
00000000: bb00 0c3f f4fa 81bd 1078 073e e055 313e
00000010: 2a15 88be 141a b9be e7e4 1d3f 4a3c 933e
00000020: d059 f83d c224 8b3f da61 adbe fcff 61bf
00000030: 0f6c debe 428e 39be 9c65 c03e ffaa 353f
00000040: bad1 323e bb76 aabe 37c0 d23e b212 81be
00000050: de5b a93e 2ee8 863e ee13 43be 5a0d 01bf
00000060: 9412 2b3f 904f 05bf 9a2a cf3c 4175 713f
00000070: 94fd 793e fc58 2fbf a63f 7abe f292 e23e
00000080: 76bd 63bf 5c12 26bf 9a03 263e 9dbc dabe
00000090: e26c 953e 32af 413f 909b 2e3e 56d6 83be
000000a0: 3f32 8c3e 3076 443e 58ec b83e a856 1c3f
000000b0: df0f b0bd 17a2 b73f 2420 e0be 0802 0bbf
000000c0: 260d 933d 4afd 843e 10fa 07bf 70e9 063d
000000d0: fed6 153e ca3f 933e ca10 febe dcc8 c53e
000000e0: 26d0 fb3d 6326 f5be ceab 2cbf 2445 083f
000000f0: a6dd 933e c2a2 3ebd 8f5f 773d 6c1b 163d

static_variable_selection.single_variable_grns.ND_scale.fc1.bias f4 [8]
0.0067340937 0.044597737 -0.015783783 0.0029386396 0.010609429 -0.013084963 0.0069705956 0.012197687
00000000: aca9 dc3b 1eac 363d fe4c 81bc 3196 403b
00000010: 2cd3 2d3c 5062 56bc 9869 e43b cfd8 473c

static_variable_selection.single_variable_grns.ND_scale.fc2.weight f4 [8, 8]
-0.94505525 -0.55725396 0.16008161 -0.20142901 -0.5764353 0.07369317 0.40363178 -0.6564892
0.15826227 0.017284166 -0.37953573 -0.9342648 -0.131259 0.21228065 0.02830025 -0.26852316
-1.1677961 0.03031686 0.17446592 0.92521167 0.14001505 -0.42864472 -0.20493008 0.38618493
-0.14971054 0.73759806 -0.10559206 -0.340136 -0.87553966 -0.32530412 0.7153033 -0.1670857
0.31271493 0.06873062 0.22201137 -0.44833377 0.26567525 -0.77562344 -0.22473097 -0.2758713
0.03825658 -0.38808498 -0.17567593 -0.03629917 0.4876612 0.3770671 -0.89386 0.10411389
0.38618553 0.52445185 -0.53481704 0.51384974 -0.11508134 -0.31814802 -1.1584687 -0.26857823
-0.6112493 -0.52496874 0.41061345 0.30014217 -0.5598444 -0.71224546 -0.13821301 -0.2203365
00000000: 24ef 71bf 32a8 0ebf 6fec 233e 6843 4ebe
00000010: 4491 13bf 72ec 963d d3a8 ce3e ad0f 28bf
00000020: 810f 223e 8697 8d3c 8252 c2be fa2b 6fbf
00000030: c268 06be 1960 593e edd5 e73c de7b 89be
00000040: 587a 95bf 105b f83c 32a7 323e acda 6c3f
00000050: 1b60 0f3e 5277 dbbe 31d9 51be 08ba c53e
00000060: b84d 19be 3ad3 3c3f a640 d8bd 4e26 aebe
00000070: 5e23 60bf 438e a6be 1e1e 373f 8418 2bbe
00000080: 2c1c a03e a4c2 8c3d f356 633e 018c e5be
00000090: 9606 883e 428f 46bf e01f 66be 013f 8dbe
000000a0: eeb2 1c3d 13b3 c6be 64e4 33be 70ae 14bd
000000b0: bbae f93e f00e c13e 02d4 64bf aa39 d53d
000000c0: 1cba c53e 7a42 063f c5e9 08bf a88b 033f
000000d0: c4af ebbd 4ce4 a2be b448 94bf 1683 89be
000000e0: d67a 1cbf 5a64 06bf ed3b d23e 3cac 993e
000000f0: f651 0fbf b855 36bf b687 0dbe e49f 61be

static_variable_selection.single_variable_grns.ND_scale.fc2.bias f4 [8]
-0.006140611 -0.0073094815 0.028445672 0.019410696 0.0199233 -0.014912749 0.013038527 -0.05355195
00000000: 2e37 c9bb 6084 efbb e606 e93c 2e03 9f3c
00000010: 3036 a33c 9a54 74bc 8c9f 553c 4a59 5bbd
